{"format": "graph-model", "generatedBy": "2.19.0", "convertedBy": "TensorFlow.js Converter v4.22.0", "signature": {"outputs": {"Identity:0": {"name": "Identity:0"}}}, "modelTopology": {"node": [{"name": "model/tf.strided_slice_6/ones_like/tensor", "op": "Const", "attr": {"value": {"tensor": {"dtype": "DT_INT64", "tensorShape": {"dim": [{"size": "4"}]}}}, "dtype": {"type": "DT_INT64"}}}, {"name": "model/tf.strided_slice_6/StridedSlice/end", "op": "Const", "attr": {"value": {"tensor": {"dtype": "DT_INT64", "tensorShape": {"dim": [{"size": "4"}]}}}, "dtype": {"type": "DT_INT64"}}}, {"name": "model/tf.strided_slice_6/ones_like", "op": "Const", "attr": {"value": {"tensor": {"dtype": "DT_INT64", "tensorShape": {"dim": [{"size": "4"}]}}}, "dtype": {"type": "DT_INT64"}}}, {"name": "model/tf.strided_slice_4/ones_like/tensor", "op": "Const", "attr": {"value": {"tensor": {"dtype": "DT_INT64", "tensorShape": {"dim": [{"size": "4"}]}}}, "dtype": {"type": "DT_INT64"}}}, {"name": "model/tf.strided_slice_4/StridedSlice/end", "op": "Const", "attr": {"value": {"tensor": {"dtype": "DT_INT64", "tensorShape": {"dim": [{"size": "4"}]}}}, "dtype": {"type": "DT_INT64"}}}, {"name": "model/tf.strided_slice_4/ones_like", "op": "Const", "attr": {"value": {"tensor": {"dtype": "DT_INT64", "tensorShape": {"dim": [{"size": "4"}]}}}, "dtype": {"type": "DT_INT64"}}}, {"name": "model/tf.strided_slice_2/ones_like/tensor", "op": "Const", "attr": {"value": {"tensor": {"dtype": "DT_INT64", "tensorShape": {"dim": [{"size": "4"}]}}}, "dtype": {"type": "DT_INT64"}}}, {"name": "model/tf.strided_slice_2/StridedSlice/end", "op": "Const", "attr": {"value": {"tensor": {"dtype": "DT_INT64", "tensorShape": {"dim": [{"size": "4"}]}}}, "dtype": {"type": "DT_INT64"}}}, {"name": "model/tf.strided_slice_2/ones_like", "op": "Const", "attr": {"value": {"tensor": {"dtype": "DT_INT64", "tensorShape": {"dim": [{"size": "4"}]}}}, "dtype": {"type": "DT_INT64"}}}, {"name": "model/tf.strided_slice/ones_like/tensor", "op": "Const", "attr": {"value": {"tensor": {"dtype": "DT_INT64", "tensorShape": {"dim": [{"size": "4"}]}}}, "dtype": {"type": "DT_INT64"}}}, {"name": "model/tf.strided_slice/StridedSlice/end", "op": "Const", "attr": {"value": {"tensor": {"dtype": "DT_INT64", "tensorShape": {"dim": [{"size": "4"}]}}}, "dtype": {"type": "DT_INT64"}}}, {"name": "model/tf.strided_slice/ones_like", "op": "Const", "attr": {"value": {"tensor": {"dtype": "DT_INT64", "tensorShape": {"dim": [{"size": "4"}]}}}, "dtype": {"type": "DT_INT64"}}}, {"name": "model/tf.compat.v1.pad/Pad/paddings", "op": "Const", "attr": {"value": {"tensor": {"dtype": "DT_INT32", "tensorShape": {"dim": [{"size": "4"}, {"size": "2"}]}}}, "dtype": {"type": "DT_INT32"}}}, {"name": "model/tf.nn.convolution/convolution/filter", "op": "Const", "attr": {"value": {"tensor": {"dtype": "DT_FLOAT", "tensorShape": {"dim": [{"size": "3"}, {"size": "3"}, {"size": "3"}, {"size": "48"}]}}}, "dtype": {"type": "DT_FLOAT"}}}, {"name": "model/tf.math.add/Add/y", "op": "Const", "attr": {"value": {"tensor": {"dtype": "DT_FLOAT", "tensorShape": {"dim": [{"size": "48"}]}}}, "dtype": {"type": "DT_FLOAT"}}}, {"name": "model/tf.compat.v1.pad_1/Pad/paddings", "op": "Const", "attr": {"value": {"tensor": {"dtype": "DT_INT32", "tensorShape": {"dim": [{"size": "4"}, {"size": "2"}]}}}, "dtype": {"type": "DT_INT32"}}}, {"name": "model/tf.nn.convolution_1/convolution/filter", "op": "Const", "attr": {"value": {"tensor": {"dtype": "DT_FLOAT", "tensorShape": {"dim": [{"size": "3"}, {"size": "3"}, {"size": "48"}, {"size": "96"}]}}}, "dtype": {"type": "DT_FLOAT"}}}, {"name": "model/tf.math.add_1/Add/y", "op": "Const", "attr": {"value": {"tensor": {"dtype": "DT_FLOAT", "tensorShape": {"dim": [{"size": "96"}]}}}, "dtype": {"type": "DT_FLOAT"}}}, {"name": "model/tf.nn.convolution_2/convolution/filter", "op": "Const", "attr": {"value": {"tensor": {"dtype": "DT_FLOAT", "tensorShape": {"dim": [{"size": "1"}, {"size": "1"}, {"size": "96"}, {"size": "96"}]}}}, "dtype": {"type": "DT_FLOAT"}}}, {"name": "model/tf.math.add_2/Add/y", "op": "Const", "attr": {"value": {"tensor": {"dtype": "DT_FLOAT", "tensorShape": {"dim": [{"size": "96"}]}}}, "dtype": {"type": "DT_FLOAT"}}}, {"name": "model/tf.strided_slice_1/ones_like/tensor", "op": "Const", "attr": {"value": {"tensor": {"dtype": "DT_INT64", "tensorShape": {"dim": [{"size": "4"}]}}}, "dtype": {"type": "DT_INT64"}}}, {"name": "model/tf.strided_slice_1/StridedSlice/end", "op": "Const", "attr": {"value": {"tensor": {"dtype": "DT_INT64", "tensorShape": {"dim": [{"size": "4"}]}}}, "dtype": {"type": "DT_INT64"}}}, {"name": "model/tf.strided_slice_1/ones_like", "op": "Const", "attr": {"value": {"tensor": {"dtype": "DT_INT64", "tensorShape": {"dim": [{"size": "4"}]}}}, "dtype": {"type": "DT_INT64"}}}, {"name": "model/tf.nn.convolution_3/convolution/filter", "op": "Const", "attr": {"value": {"tensor": {"dtype": "DT_FLOAT", "tensorShape": {"dim": [{"size": "3"}, {"size": "3"}, {"size": "48"}, {"size": "48"}]}}}, "dtype": {"type": "DT_FLOAT"}}}, {"name": "model/tf.math.add_3/Add/y", "op": "Const", "attr": {"value": {"tensor": {"dtype": "DT_FLOAT", "tensorShape": {"dim": [{"size": "48"}]}}}, "dtype": {"type": "DT_FLOAT"}}}, {"name": "model/tf.nn.convolution_4/convolution/filter", "op": "Const", "attr": {"value": {"tensor": {"dtype": "DT_FLOAT", "tensorShape": {"dim": [{"size": "3"}, {"size": "3"}, {"size": "48"}, {"size": "48"}]}}}, "dtype": {"type": "DT_FLOAT"}}}, {"name": "model/tf.math.add_4/Add/y", "op": "Const", "attr": {"value": {"tensor": {"dtype": "DT_FLOAT", "tensorShape": {"dim": [{"size": "48"}]}}}, "dtype": {"type": "DT_FLOAT"}}}, {"name": "model/tf.nn.convolution_5/convolution/filter", "op": "Const", "attr": {"value": {"tensor": {"dtype": "DT_FLOAT", "tensorShape": {"dim": [{"size": "3"}, {"size": "3"}, {"size": "48"}, {"size": "48"}]}}}, "dtype": {"type": "DT_FLOAT"}}}, {"name": "model/tf.math.add_7/Add/y", "op": "Const", "attr": {"value": {"tensor": {"dtype": "DT_FLOAT", "tensorShape": {"dim": [{"size": "48"}]}}}, "dtype": {"type": "DT_FLOAT"}}}, {"name": "model/tf.nn.convolution_6/convolution/filter", "op": "Const", "attr": {"value": {"tensor": {"dtype": "DT_FLOAT", "tensorShape": {"dim": [{"size": "3"}, {"size": "3"}, {"size": "48"}, {"size": "48"}]}}}, "dtype": {"type": "DT_FLOAT"}}}, {"name": "model/tf.math.add_8/Add/y", "op": "Const", "attr": {"value": {"tensor": {"dtype": "DT_FLOAT", "tensorShape": {"dim": [{"size": "48"}]}}}, "dtype": {"type": "DT_FLOAT"}}}, {"name": "model/tf.concat/concat/axis", "op": "Const", "attr": {"value": {"tensor": {"dtype": "DT_INT32", "tensorShape": {}}}, "dtype": {"type": "DT_INT32"}}}, {"name": "model/tf.nn.convolution_7/convolution/filter", "op": "Const", "attr": {"value": {"tensor": {"dtype": "DT_FLOAT", "tensorShape": {"dim": [{"size": "1"}, {"size": "1"}, {"size": "192"}, {"size": "96"}]}}}, "dtype": {"type": "DT_FLOAT"}}}, {"name": "model/tf.math.add_11/Add/y", "op": "Const", "attr": {"value": {"tensor": {"dtype": "DT_FLOAT", "tensorShape": {"dim": [{"size": "96"}]}}}, "dtype": {"type": "DT_FLOAT"}}}, {"name": "model/tf.compat.v1.pad_2/Pad/paddings", "op": "Const", "attr": {"value": {"tensor": {"dtype": "DT_INT32", "tensorShape": {"dim": [{"size": "4"}, {"size": "2"}]}}}, "dtype": {"type": "DT_INT32"}}}, {"name": "model/tf.nn.convolution_8/convolution/filter", "op": "Const", "attr": {"value": {"tensor": {"dtype": "DT_FLOAT", "tensorShape": {"dim": [{"size": "3"}, {"size": "3"}, {"size": "96"}, {"size": "192"}]}}}, "dtype": {"type": "DT_FLOAT"}}}, {"name": "model/tf.math.add_12/Add/y", "op": "Const", "attr": {"value": {"tensor": {"dtype": "DT_FLOAT", "tensorShape": {"dim": [{"size": "192"}]}}}, "dtype": {"type": "DT_FLOAT"}}}, {"name": "model/tf.nn.convolution_9/convolution/filter", "op": "Const", "attr": {"value": {"tensor": {"dtype": "DT_FLOAT", "tensorShape": {"dim": [{"size": "1"}, {"size": "1"}, {"size": "192"}, {"size": "192"}]}}}, "dtype": {"type": "DT_FLOAT"}}}, {"name": "model/tf.math.add_13/Add/y", "op": "Const", "attr": {"value": {"tensor": {"dtype": "DT_FLOAT", "tensorShape": {"dim": [{"size": "192"}]}}}, "dtype": {"type": "DT_FLOAT"}}}, {"name": "model/tf.strided_slice_3/ones_like/tensor", "op": "Const", "attr": {"value": {"tensor": {"dtype": "DT_INT64", "tensorShape": {"dim": [{"size": "4"}]}}}, "dtype": {"type": "DT_INT64"}}}, {"name": "model/tf.strided_slice_3/StridedSlice/end", "op": "Const", "attr": {"value": {"tensor": {"dtype": "DT_INT64", "tensorShape": {"dim": [{"size": "4"}]}}}, "dtype": {"type": "DT_INT64"}}}, {"name": "model/tf.strided_slice_3/ones_like", "op": "Const", "attr": {"value": {"tensor": {"dtype": "DT_INT64", "tensorShape": {"dim": [{"size": "4"}]}}}, "dtype": {"type": "DT_INT64"}}}, {"name": "model/tf.nn.convolution_10/convolution/filter", "op": "Const", "attr": {"value": {"tensor": {"dtype": "DT_FLOAT", "tensorShape": {"dim": [{"size": "3"}, {"size": "3"}, {"size": "96"}, {"size": "96"}]}}}, "dtype": {"type": "DT_FLOAT"}}}, {"name": "model/tf.math.add_14/Add/y", "op": "Const", "attr": {"value": {"tensor": {"dtype": "DT_FLOAT", "tensorShape": {"dim": [{"size": "96"}]}}}, "dtype": {"type": "DT_FLOAT"}}}, {"name": "model/tf.nn.convolution_11/convolution/filter", "op": "Const", "attr": {"value": {"tensor": {"dtype": "DT_FLOAT", "tensorShape": {"dim": [{"size": "3"}, {"size": "3"}, {"size": "96"}, {"size": "96"}]}}}, "dtype": {"type": "DT_FLOAT"}}}, {"name": "model/tf.math.add_15/Add/y", "op": "Const", "attr": {"value": {"tensor": {"dtype": "DT_FLOAT", "tensorShape": {"dim": [{"size": "96"}]}}}, "dtype": {"type": "DT_FLOAT"}}}, {"name": "model/tf.nn.convolution_12/convolution/filter", "op": "Const", "attr": {"value": {"tensor": {"dtype": "DT_FLOAT", "tensorShape": {"dim": [{"size": "3"}, {"size": "3"}, {"size": "96"}, {"size": "96"}]}}}, "dtype": {"type": "DT_FLOAT"}}}, {"name": "model/tf.math.add_18/Add/y", "op": "Const", "attr": {"value": {"tensor": {"dtype": "DT_FLOAT", "tensorShape": {"dim": [{"size": "96"}]}}}, "dtype": {"type": "DT_FLOAT"}}}, {"name": "model/tf.nn.convolution_13/convolution/filter", "op": "Const", "attr": {"value": {"tensor": {"dtype": "DT_FLOAT", "tensorShape": {"dim": [{"size": "3"}, {"size": "3"}, {"size": "96"}, {"size": "96"}]}}}, "dtype": {"type": "DT_FLOAT"}}}, {"name": "model/tf.math.add_19/Add/y", "op": "Const", "attr": {"value": {"tensor": {"dtype": "DT_FLOAT", "tensorShape": {"dim": [{"size": "96"}]}}}, "dtype": {"type": "DT_FLOAT"}}}, {"name": "model/tf.nn.convolution_14/convolution/filter", "op": "Const", "attr": {"value": {"tensor": {"dtype": "DT_FLOAT", "tensorShape": {"dim": [{"size": "3"}, {"size": "3"}, {"size": "96"}, {"size": "96"}]}}}, "dtype": {"type": "DT_FLOAT"}}}, {"name": "model/tf.math.add_22/Add/y", "op": "Const", "attr": {"value": {"tensor": {"dtype": "DT_FLOAT", "tensorShape": {"dim": [{"size": "96"}]}}}, "dtype": {"type": "DT_FLOAT"}}}, {"name": "model/tf.nn.convolution_15/convolution/filter", "op": "Const", "attr": {"value": {"tensor": {"dtype": "DT_FLOAT", "tensorShape": {"dim": [{"size": "3"}, {"size": "3"}, {"size": "96"}, {"size": "96"}]}}}, "dtype": {"type": "DT_FLOAT"}}}, {"name": "model/tf.math.add_23/Add/y", "op": "Const", "attr": {"value": {"tensor": {"dtype": "DT_FLOAT", "tensorShape": {"dim": [{"size": "96"}]}}}, "dtype": {"type": "DT_FLOAT"}}}, {"name": "model/tf.nn.convolution_16/convolution/filter", "op": "Const", "attr": {"value": {"tensor": {"dtype": "DT_FLOAT", "tensorShape": {"dim": [{"size": "3"}, {"size": "3"}, {"size": "96"}, {"size": "96"}]}}}, "dtype": {"type": "DT_FLOAT"}}}, {"name": "model/tf.math.add_26/Add/y", "op": "Const", "attr": {"value": {"tensor": {"dtype": "DT_FLOAT", "tensorShape": {"dim": [{"size": "96"}]}}}, "dtype": {"type": "DT_FLOAT"}}}, {"name": "model/tf.nn.convolution_17/convolution/filter", "op": "Const", "attr": {"value": {"tensor": {"dtype": "DT_FLOAT", "tensorShape": {"dim": [{"size": "3"}, {"size": "3"}, {"size": "96"}, {"size": "96"}]}}}, "dtype": {"type": "DT_FLOAT"}}}, {"name": "model/tf.math.add_27/Add/y", "op": "Const", "attr": {"value": {"tensor": {"dtype": "DT_FLOAT", "tensorShape": {"dim": [{"size": "96"}]}}}, "dtype": {"type": "DT_FLOAT"}}}, {"name": "model/tf.concat_1/concat/axis", "op": "Const", "attr": {"value": {"tensor": {"dtype": "DT_INT32", "tensorShape": {}}}, "dtype": {"type": "DT_INT32"}}}, {"name": "model/tf.nn.convolution_18/convolution/filter", "op": "Const", "attr": {"value": {"tensor": {"dtype": "DT_FLOAT", "tensorShape": {"dim": [{"size": "1"}, {"size": "1"}, {"size": "576"}, {"size": "192"}]}}}, "dtype": {"type": "DT_FLOAT"}}}, {"name": "model/tf.math.add_30/Add/y", "op": "Const", "attr": {"value": {"tensor": {"dtype": "DT_FLOAT", "tensorShape": {"dim": [{"size": "192"}]}}}, "dtype": {"type": "DT_FLOAT"}}}, {"name": "model/tf.compat.v1.pad_3/Pad/paddings", "op": "Const", "attr": {"value": {"tensor": {"dtype": "DT_INT32", "tensorShape": {"dim": [{"size": "4"}, {"size": "2"}]}}}, "dtype": {"type": "DT_INT32"}}}, {"name": "model/tf.nn.convolution_19/convolution/filter", "op": "Const", "attr": {"value": {"tensor": {"dtype": "DT_FLOAT", "tensorShape": {"dim": [{"size": "3"}, {"size": "3"}, {"size": "192"}, {"size": "384"}]}}}, "dtype": {"type": "DT_FLOAT"}}}, {"name": "model/tf.math.add_31/Add/y", "op": "Const", "attr": {"value": {"tensor": {"dtype": "DT_FLOAT", "tensorShape": {"dim": [{"size": "384"}]}}}, "dtype": {"type": "DT_FLOAT"}}}, {"name": "model/tf.nn.convolution_20/convolution/filter", "op": "Const", "attr": {"value": {"tensor": {"dtype": "DT_FLOAT", "tensorShape": {"dim": [{"size": "1"}, {"size": "1"}, {"size": "384"}, {"size": "384"}]}}}, "dtype": {"type": "DT_FLOAT"}}}, {"name": "model/tf.math.add_32/Add/y", "op": "Const", "attr": {"value": {"tensor": {"dtype": "DT_FLOAT", "tensorShape": {"dim": [{"size": "384"}]}}}, "dtype": {"type": "DT_FLOAT"}}}, {"name": "model/tf.strided_slice_5/ones_like/tensor", "op": "Const", "attr": {"value": {"tensor": {"dtype": "DT_INT64", "tensorShape": {"dim": [{"size": "4"}]}}}, "dtype": {"type": "DT_INT64"}}}, {"name": "model/tf.strided_slice_5/StridedSlice/end", "op": "Const", "attr": {"value": {"tensor": {"dtype": "DT_INT64", "tensorShape": {"dim": [{"size": "4"}]}}}, "dtype": {"type": "DT_INT64"}}}, {"name": "model/tf.strided_slice_5/ones_like", "op": "Const", "attr": {"value": {"tensor": {"dtype": "DT_INT64", "tensorShape": {"dim": [{"size": "4"}]}}}, "dtype": {"type": "DT_INT64"}}}, {"name": "model/tf.nn.convolution_21/convolution/filter", "op": "Const", "attr": {"value": {"tensor": {"dtype": "DT_FLOAT", "tensorShape": {"dim": [{"size": "3"}, {"size": "3"}, {"size": "192"}, {"size": "192"}]}}}, "dtype": {"type": "DT_FLOAT"}}}, {"name": "model/tf.math.add_33/Add/y", "op": "Const", "attr": {"value": {"tensor": {"dtype": "DT_FLOAT", "tensorShape": {"dim": [{"size": "192"}]}}}, "dtype": {"type": "DT_FLOAT"}}}, {"name": "model/tf.nn.convolution_22/convolution/filter", "op": "Const", "attr": {"value": {"tensor": {"dtype": "DT_FLOAT", "tensorShape": {"dim": [{"size": "3"}, {"size": "3"}, {"size": "192"}, {"size": "192"}]}}}, "dtype": {"type": "DT_FLOAT"}}}, {"name": "model/tf.math.add_34/Add/y", "op": "Const", "attr": {"value": {"tensor": {"dtype": "DT_FLOAT", "tensorShape": {"dim": [{"size": "192"}]}}}, "dtype": {"type": "DT_FLOAT"}}}, {"name": "model/tf.nn.convolution_23/convolution/filter", "op": "Const", "attr": {"value": {"tensor": {"dtype": "DT_FLOAT", "tensorShape": {"dim": [{"size": "3"}, {"size": "3"}, {"size": "192"}, {"size": "192"}]}}}, "dtype": {"type": "DT_FLOAT"}}}, {"name": "model/tf.math.add_37/Add/y", "op": "Const", "attr": {"value": {"tensor": {"dtype": "DT_FLOAT", "tensorShape": {"dim": [{"size": "192"}]}}}, "dtype": {"type": "DT_FLOAT"}}}, {"name": "model/tf.nn.convolution_24/convolution/filter", "op": "Const", "attr": {"value": {"tensor": {"dtype": "DT_FLOAT", "tensorShape": {"dim": [{"size": "3"}, {"size": "3"}, {"size": "192"}, {"size": "192"}]}}}, "dtype": {"type": "DT_FLOAT"}}}, {"name": "model/tf.math.add_38/Add/y", "op": "Const", "attr": {"value": {"tensor": {"dtype": "DT_FLOAT", "tensorShape": {"dim": [{"size": "192"}]}}}, "dtype": {"type": "DT_FLOAT"}}}, {"name": "model/tf.nn.convolution_25/convolution/filter", "op": "Const", "attr": {"value": {"tensor": {"dtype": "DT_FLOAT", "tensorShape": {"dim": [{"size": "3"}, {"size": "3"}, {"size": "192"}, {"size": "192"}]}}}, "dtype": {"type": "DT_FLOAT"}}}, {"name": "model/tf.math.add_41/Add/y", "op": "Const", "attr": {"value": {"tensor": {"dtype": "DT_FLOAT", "tensorShape": {"dim": [{"size": "192"}]}}}, "dtype": {"type": "DT_FLOAT"}}}, {"name": "model/tf.nn.convolution_26/convolution/filter", "op": "Const", "attr": {"value": {"tensor": {"dtype": "DT_FLOAT", "tensorShape": {"dim": [{"size": "3"}, {"size": "3"}, {"size": "192"}, {"size": "192"}]}}}, "dtype": {"type": "DT_FLOAT"}}}, {"name": "model/tf.math.add_42/Add/y", "op": "Const", "attr": {"value": {"tensor": {"dtype": "DT_FLOAT", "tensorShape": {"dim": [{"size": "192"}]}}}, "dtype": {"type": "DT_FLOAT"}}}, {"name": "model/tf.nn.convolution_27/convolution/filter", "op": "Const", "attr": {"value": {"tensor": {"dtype": "DT_FLOAT", "tensorShape": {"dim": [{"size": "3"}, {"size": "3"}, {"size": "192"}, {"size": "192"}]}}}, "dtype": {"type": "DT_FLOAT"}}}, {"name": "model/tf.math.add_45/Add/y", "op": "Const", "attr": {"value": {"tensor": {"dtype": "DT_FLOAT", "tensorShape": {"dim": [{"size": "192"}]}}}, "dtype": {"type": "DT_FLOAT"}}}, {"name": "model/tf.nn.convolution_28/convolution/filter", "op": "Const", "attr": {"value": {"tensor": {"dtype": "DT_FLOAT", "tensorShape": {"dim": [{"size": "3"}, {"size": "3"}, {"size": "192"}, {"size": "192"}]}}}, "dtype": {"type": "DT_FLOAT"}}}, {"name": "model/tf.math.add_46/Add/y", "op": "Const", "attr": {"value": {"tensor": {"dtype": "DT_FLOAT", "tensorShape": {"dim": [{"size": "192"}]}}}, "dtype": {"type": "DT_FLOAT"}}}, {"name": "model/tf.concat_2/concat/axis", "op": "Const", "attr": {"value": {"tensor": {"dtype": "DT_INT32", "tensorShape": {}}}, "dtype": {"type": "DT_INT32"}}}, {"name": "model/tf.nn.convolution_29/convolution/filter", "op": "Const", "attr": {"value": {"tensor": {"dtype": "DT_FLOAT", "tensorShape": {"dim": [{"size": "1"}, {"size": "1"}, {"size": "1152"}, {"size": "384"}]}}}, "dtype": {"type": "DT_FLOAT"}}}, {"name": "model/tf.math.add_49/Add/y", "op": "Const", "attr": {"value": {"tensor": {"dtype": "DT_FLOAT", "tensorShape": {"dim": [{"size": "384"}]}}}, "dtype": {"type": "DT_FLOAT"}}}, {"name": "model/tf.compat.v1.pad_4/Pad/paddings", "op": "Const", "attr": {"value": {"tensor": {"dtype": "DT_INT32", "tensorShape": {"dim": [{"size": "4"}, {"size": "2"}]}}}, "dtype": {"type": "DT_INT32"}}}, {"name": "model/tf.nn.convolution_30/convolution/filter", "op": "Const", "attr": {"value": {"tensor": {"dtype": "DT_FLOAT", "tensorShape": {"dim": [{"size": "3"}, {"size": "3"}, {"size": "384"}, {"size": "768"}]}}}, "dtype": {"type": "DT_FLOAT"}}}, {"name": "model/tf.math.add_50/Add/y", "op": "Const", "attr": {"value": {"tensor": {"dtype": "DT_FLOAT", "tensorShape": {"dim": [{"size": "768"}]}}}, "dtype": {"type": "DT_FLOAT"}}}, {"name": "model/tf.nn.convolution_31/convolution/filter", "op": "Const", "attr": {"value": {"tensor": {"dtype": "DT_FLOAT", "tensorShape": {"dim": [{"size": "1"}, {"size": "1"}, {"size": "768"}, {"size": "768"}]}}}, "dtype": {"type": "DT_FLOAT"}}}, {"name": "model/tf.math.add_51/Add/y", "op": "Const", "attr": {"value": {"tensor": {"dtype": "DT_FLOAT", "tensorShape": {"dim": [{"size": "768"}]}}}, "dtype": {"type": "DT_FLOAT"}}}, {"name": "model/tf.strided_slice_7/ones_like/tensor", "op": "Const", "attr": {"value": {"tensor": {"dtype": "DT_INT64", "tensorShape": {"dim": [{"size": "4"}]}}}, "dtype": {"type": "DT_INT64"}}}, {"name": "model/tf.strided_slice_7/StridedSlice/end", "op": "Const", "attr": {"value": {"tensor": {"dtype": "DT_INT64", "tensorShape": {"dim": [{"size": "4"}]}}}, "dtype": {"type": "DT_INT64"}}}, {"name": "model/tf.strided_slice_7/ones_like", "op": "Const", "attr": {"value": {"tensor": {"dtype": "DT_INT64", "tensorShape": {"dim": [{"size": "4"}]}}}, "dtype": {"type": "DT_INT64"}}}, {"name": "model/tf.nn.convolution_32/convolution/filter", "op": "Const", "attr": {"value": {"tensor": {"dtype": "DT_FLOAT", "tensorShape": {"dim": [{"size": "3"}, {"size": "3"}, {"size": "384"}, {"size": "384"}]}}}, "dtype": {"type": "DT_FLOAT"}}}, {"name": "model/tf.math.add_52/Add/y", "op": "Const", "attr": {"value": {"tensor": {"dtype": "DT_FLOAT", "tensorShape": {"dim": [{"size": "384"}]}}}, "dtype": {"type": "DT_FLOAT"}}}, {"name": "model/tf.nn.convolution_33/convolution/filter", "op": "Const", "attr": {"value": {"tensor": {"dtype": "DT_FLOAT", "tensorShape": {"dim": [{"size": "3"}, {"size": "3"}, {"size": "384"}, {"size": "384"}]}}}, "dtype": {"type": "DT_FLOAT"}}}, {"name": "model/tf.math.add_53/Add/y", "op": "Const", "attr": {"value": {"tensor": {"dtype": "DT_FLOAT", "tensorShape": {"dim": [{"size": "384"}]}}}, "dtype": {"type": "DT_FLOAT"}}}, {"name": "model/tf.nn.convolution_34/convolution/filter", "op": "Const", "attr": {"value": {"tensor": {"dtype": "DT_FLOAT", "tensorShape": {"dim": [{"size": "3"}, {"size": "3"}, {"size": "384"}, {"size": "384"}]}}}, "dtype": {"type": "DT_FLOAT"}}}, {"name": "model/tf.math.add_56/Add/y", "op": "Const", "attr": {"value": {"tensor": {"dtype": "DT_FLOAT", "tensorShape": {"dim": [{"size": "384"}]}}}, "dtype": {"type": "DT_FLOAT"}}}, {"name": "model/tf.nn.convolution_35/convolution/filter", "op": "Const", "attr": {"value": {"tensor": {"dtype": "DT_FLOAT", "tensorShape": {"dim": [{"size": "3"}, {"size": "3"}, {"size": "384"}, {"size": "384"}]}}}, "dtype": {"type": "DT_FLOAT"}}}, {"name": "model/tf.math.add_57/Add/y", "op": "Const", "attr": {"value": {"tensor": {"dtype": "DT_FLOAT", "tensorShape": {"dim": [{"size": "384"}]}}}, "dtype": {"type": "DT_FLOAT"}}}, {"name": "model/tf.concat_3/concat/axis", "op": "Const", "attr": {"value": {"tensor": {"dtype": "DT_INT32", "tensorShape": {}}}, "dtype": {"type": "DT_INT32"}}}, {"name": "model/tf.nn.convolution_36/convolution/filter", "op": "Const", "attr": {"value": {"tensor": {"dtype": "DT_FLOAT", "tensorShape": {"dim": [{"size": "1"}, {"size": "1"}, {"size": "1536"}, {"size": "768"}]}}}, "dtype": {"type": "DT_FLOAT"}}}, {"name": "model/tf.math.add_60/Add/y", "op": "Const", "attr": {"value": {"tensor": {"dtype": "DT_FLOAT", "tensorShape": {"dim": [{"size": "768"}]}}}, "dtype": {"type": "DT_FLOAT"}}}, {"name": "model/tf.nn.convolution_37/convolution/filter", "op": "Const", "attr": {"value": {"tensor": {"dtype": "DT_FLOAT", "tensorShape": {"dim": [{"size": "1"}, {"size": "1"}, {"size": "768"}, {"size": "1280"}]}}}, "dtype": {"type": "DT_FLOAT"}}}, {"name": "model/tf.math.add_61/Add/y", "op": "Const", "attr": {"value": {"tensor": {"dtype": "DT_FLOAT", "tensorShape": {"dim": [{"size": "1280"}]}}}, "dtype": {"type": "DT_FLOAT"}}}, {"name": "model/tf.math.reduce_mean/Mean/reduction_indices", "op": "Const", "attr": {"value": {"tensor": {"dtype": "DT_INT32", "tensorShape": {"dim": [{"size": "2"}]}}}, "dtype": {"type": "DT_INT32"}}}, {"name": "model/tf.compat.v1.transpose_50/transpose/perm", "op": "Const", "attr": {"value": {"tensor": {"dtype": "DT_INT32", "tensorShape": {"dim": [{"size": "4"}]}}}, "dtype": {"type": "DT_INT32"}}}, {"name": "model/tf.reshape/Reshape/shape", "op": "Const", "attr": {"value": {"tensor": {"dtype": "DT_INT32", "tensorShape": {"dim": [{"size": "2"}]}}}, "dtype": {"type": "DT_INT32"}}}, {"name": "model/tf.linalg.matmul/MatMul/b", "op": "Const", "attr": {"value": {"tensor": {"dtype": "DT_FLOAT", "tensorShape": {"dim": [{"size": "1280"}, {"size": "10"}]}}}, "dtype": {"type": "DT_FLOAT"}}}, {"name": "model/tf.__operators__.add/AddV2/y", "op": "Const", "attr": {"value": {"tensor": {"dtype": "DT_FLOAT", "tensorShape": {"dim": [{"size": "10"}]}}}, "dtype": {"type": "DT_FLOAT"}}}, {"name": "x", "op": "Placeholder", "attr": {"shape": {"shape": {"dim": [{"size": "1"}, {"size": "224"}, {"size": "224"}, {"size": "3"}]}}, "dtype": {"type": "DT_FLOAT"}}}, {"name": "model/tf.compat.v1.pad/Pad", "op": "Pad", "input": ["x", "model/tf.compat.v1.pad/Pad/paddings"], "attr": {"Tpaddings": {"type": "DT_INT32"}, "T": {"type": "DT_FLOAT"}}}, {"name": "model/tf.math.add/Add", "op": "_FusedConv2D", "input": ["model/tf.compat.v1.pad/Pad", "model/tf.nn.convolution/convolution/filter", "model/tf.math.add/Add/y"], "device": "/device:CPU:0", "attr": {"num_host_args": {"i": "0"}, "_input_shapes": {"list": {"shape": [{"dim": [{"size": "-26"}, {"size": "-30"}, {"size": "-31"}, {"size": "-29"}]}, {"dim": [{"size": "3"}, {"size": "3"}, {"size": "3"}, {"size": "48"}]}]}}, "filter_format": {"s": "SFdJTw=="}, "data_format": {"s": "TkhXQw=="}, "strides": {"list": {"i": ["1", "2", "2", "1"]}}, "num_args": {"i": "1"}, "fused_ops": {"list": {"s": ["Qmlhc0FkZA=="]}}, "TArgs": {"list": {"type": ["DT_FLOAT"]}}, "padding": {"s": "VkFMSUQ="}, "use_cudnn_on_gpu": {"b": true}, "leakyrelu_alpha": {"f": 0.2}, "epsilon": {"f": 0.0}, "T": {"type": "DT_FLOAT"}, "explicit_paddings": {"list": {}}, "dilations": {"list": {"i": ["1", "1", "1", "1"]}}}}, {"name": "model/tf.math.sigmoid/Sigmoid", "op": "Sigmoid", "input": ["model/tf.math.add/Add"], "attr": {"_input_shapes": {"list": {"shape": [{"dim": [{"size": "-26"}, {"size": "-32"}, {"size": "-33"}, {"size": "48"}]}]}}, "T": {"type": "DT_FLOAT"}}}, {"name": "model/tf.math.multiply_3/Mul", "op": "Mul", "input": ["model/tf.math.add/Add", "model/tf.math.sigmoid/Sigmoid"], "attr": {"T": {"type": "DT_FLOAT"}}}, {"name": "model/tf.compat.v1.pad_1/Pad", "op": "Pad", "input": ["model/tf.math.multiply_3/Mul", "model/tf.compat.v1.pad_1/Pad/paddings"], "attr": {"Tpaddings": {"type": "DT_INT32"}, "T": {"type": "DT_FLOAT"}}}, {"name": "model/tf.math.add_1/Add", "op": "_FusedConv2D", "input": ["model/tf.compat.v1.pad_1/Pad", "model/tf.nn.convolution_1/convolution/filter", "model/tf.math.add_1/Add/y"], "device": "/device:CPU:0", "attr": {"num_host_args": {"i": "0"}, "_input_shapes": {"list": {"shape": [{"dim": [{"size": "-26"}, {"size": "-34"}, {"size": "-35"}, {"size": "48"}]}, {"dim": [{"size": "3"}, {"size": "3"}, {"size": "48"}, {"size": "96"}]}]}}, "filter_format": {"s": "SFdJTw=="}, "data_format": {"s": "TkhXQw=="}, "strides": {"list": {"i": ["1", "2", "2", "1"]}}, "num_args": {"i": "1"}, "fused_ops": {"list": {"s": ["Qmlhc0FkZA=="]}}, "TArgs": {"list": {"type": ["DT_FLOAT"]}}, "padding": {"s": "VkFMSUQ="}, "use_cudnn_on_gpu": {"b": true}, "leakyrelu_alpha": {"f": 0.2}, "epsilon": {"f": 0.0}, "T": {"type": "DT_FLOAT"}, "explicit_paddings": {"list": {}}, "dilations": {"list": {"i": ["1", "1", "1", "1"]}}}}, {"name": "model/tf.math.sigmoid_1/Sigmoid", "op": "Sigmoid", "input": ["model/tf.math.add_1/Add"], "attr": {"_input_shapes": {"list": {"shape": [{"dim": [{"size": "-26"}, {"size": "-36"}, {"size": "-37"}, {"size": "96"}]}]}}, "T": {"type": "DT_FLOAT"}}}, {"name": "model/tf.math.multiply_7/Mul", "op": "Mul", "input": ["model/tf.math.add_1/Add", "model/tf.math.sigmoid_1/Sigmoid"], "attr": {"T": {"type": "DT_FLOAT"}}}, {"name": "model/tf.math.add_2/Add", "op": "_FusedConv2D", "input": ["model/tf.math.multiply_7/Mul", "model/tf.nn.convolution_2/convolution/filter", "model/tf.math.add_2/Add/y"], "device": "/device:CPU:0", "attr": {"num_host_args": {"i": "0"}, "data_format": {"s": "TkhXQw=="}, "filter_format": {"s": "SFdJTw=="}, "_input_shapes": {"list": {"shape": [{"dim": [{"size": "-26"}, {"size": "-36"}, {"size": "-37"}, {"size": "96"}]}, {"dim": [{"size": "1"}, {"size": "1"}, {"size": "96"}, {"size": "96"}]}]}}, "strides": {"list": {"i": ["1", "1", "1", "1"]}}, "num_args": {"i": "1"}, "fused_ops": {"list": {"s": ["Qmlhc0FkZA=="]}}, "TArgs": {"list": {"type": ["DT_FLOAT"]}}, "padding": {"s": "U0FNRQ=="}, "use_cudnn_on_gpu": {"b": true}, "leakyrelu_alpha": {"f": 0.2}, "epsilon": {"f": 0.0}, "T": {"type": "DT_FLOAT"}, "explicit_paddings": {"list": {}}, "dilations": {"list": {"i": ["1", "1", "1", "1"]}}}}, {"name": "model/tf.math.sigmoid_2/Sigmoid", "op": "Sigmoid", "input": ["model/tf.math.add_2/Add"], "attr": {"_input_shapes": {"list": {"shape": [{"dim": [{"size": "-26"}, {"size": "-36"}, {"size": "-37"}, {"size": "96"}]}]}}, "T": {"type": "DT_FLOAT"}}}, {"name": "model/tf.math.multiply_11/Mul", "op": "Mul", "input": ["model/tf.math.add_2/Add", "model/tf.math.sigmoid_2/Sigmoid"], "attr": {"T": {"type": "DT_FLOAT"}}}, {"name": "model/tf.strided_slice/StridedSlice", "op": "StridedSlice", "input": ["model/tf.math.multiply_11/Mul", "model/tf.strided_slice/ones_like/tensor", "model/tf.strided_slice/StridedSlice/end", "model/tf.strided_slice/ones_like"], "attr": {"shrink_axis_mask": {"i": "0"}, "new_axis_mask": {"i": "0"}, "Index": {"type": "DT_INT64"}, "begin_mask": {"i": "15"}, "T": {"type": "DT_FLOAT"}, "end_mask": {"i": "7"}, "ellipsis_mask": {"i": "0"}}}, {"name": "model/tf.strided_slice_1/StridedSlice", "op": "StridedSlice", "input": ["model/tf.math.multiply_11/Mul", "model/tf.strided_slice_1/ones_like/tensor", "model/tf.strided_slice_1/StridedSlice/end", "model/tf.strided_slice_1/ones_like"], "attr": {"shrink_axis_mask": {"i": "0"}, "Index": {"type": "DT_INT64"}, "new_axis_mask": {"i": "0"}, "begin_mask": {"i": "7"}, "T": {"type": "DT_FLOAT"}, "end_mask": {"i": "7"}, "ellipsis_mask": {"i": "0"}}}, {"name": "model/tf.math.add_3/Add", "op": "_FusedConv2D", "input": ["model/tf.strided_slice_1/StridedSlice", "model/tf.nn.convolution_3/convolution/filter", "model/tf.math.add_3/Add/y"], "device": "/device:CPU:0", "attr": {"num_host_args": {"i": "0"}, "_input_shapes": {"list": {"shape": [{"dim": [{"size": "-5"}, {"size": "-6"}, {"size": "-7"}, {"size": "48"}]}, {"dim": [{"size": "3"}, {"size": "3"}, {"size": "48"}, {"size": "48"}]}]}}, "filter_format": {"s": "SFdJTw=="}, "data_format": {"s": "TkhXQw=="}, "strides": {"list": {"i": ["1", "1", "1", "1"]}}, "num_args": {"i": "1"}, "fused_ops": {"list": {"s": ["Qmlhc0FkZA=="]}}, "TArgs": {"list": {"type": ["DT_FLOAT"]}}, "padding": {"s": "U0FNRQ=="}, "use_cudnn_on_gpu": {"b": true}, "leakyrelu_alpha": {"f": 0.2}, "epsilon": {"f": 0.0}, "T": {"type": "DT_FLOAT"}, "explicit_paddings": {"list": {}}, "dilations": {"list": {"i": ["1", "1", "1", "1"]}}}}, {"name": "model/tf.math.sigmoid_3/Sigmoid", "op": "Sigmoid", "input": ["model/tf.math.add_3/Add"], "attr": {"_input_shapes": {"list": {"shape": [{"dim": [{"size": "-5"}, {"size": "-6"}, {"size": "-7"}, {"size": "48"}]}]}}, "T": {"type": "DT_FLOAT"}}}, {"name": "model/tf.math.multiply_15/Mul", "op": "Mul", "input": ["model/tf.math.add_3/Add", "model/tf.math.sigmoid_3/Sigmoid"], "attr": {"T": {"type": "DT_FLOAT"}}}, {"name": "model/tf.math.add_4/Add", "op": "_FusedConv2D", "input": ["model/tf.math.multiply_15/Mul", "model/tf.nn.convolution_4/convolution/filter", "model/tf.math.add_4/Add/y"], "device": "/device:CPU:0", "attr": {"num_host_args": {"i": "0"}, "_input_shapes": {"list": {"shape": [{"dim": [{"size": "-5"}, {"size": "-6"}, {"size": "-7"}, {"size": "48"}]}, {"dim": [{"size": "3"}, {"size": "3"}, {"size": "48"}, {"size": "48"}]}]}}, "filter_format": {"s": "SFdJTw=="}, "data_format": {"s": "TkhXQw=="}, "strides": {"list": {"i": ["1", "1", "1", "1"]}}, "num_args": {"i": "1"}, "fused_ops": {"list": {"s": ["Qmlhc0FkZA=="]}}, "TArgs": {"list": {"type": ["DT_FLOAT"]}}, "padding": {"s": "U0FNRQ=="}, "use_cudnn_on_gpu": {"b": true}, "leakyrelu_alpha": {"f": 0.2}, "epsilon": {"f": 0.0}, "T": {"type": "DT_FLOAT"}, "explicit_paddings": {"list": {}}, "dilations": {"list": {"i": ["1", "1", "1", "1"]}}}}, {"name": "model/tf.math.sigmoid_4/Sigmoid", "op": "Sigmoid", "input": ["model/tf.math.add_4/Add"], "attr": {"_input_shapes": {"list": {"shape": [{"dim": [{"size": "-5"}, {"size": "-6"}, {"size": "-7"}, {"size": "48"}]}]}}, "T": {"type": "DT_FLOAT"}}}, {"name": "model/tf.math.multiply_19/Mul", "op": "Mul", "input": ["model/tf.math.add_4/Add", "model/tf.math.sigmoid_4/Sigmoid"], "attr": {"T": {"type": "DT_FLOAT"}}}, {"name": "model/tf.math.add_6/Add", "op": "AddV2", "input": ["model/tf.strided_slice_1/StridedSlice", "model/tf.math.multiply_19/Mul"], "attr": {"T": {"type": "DT_FLOAT"}}}, {"name": "model/tf.math.add_7/Add", "op": "_FusedConv2D", "input": ["model/tf.math.add_6/Add", "model/tf.nn.convolution_5/convolution/filter", "model/tf.math.add_7/Add/y"], "device": "/device:CPU:0", "attr": {"num_host_args": {"i": "0"}, "_input_shapes": {"list": {"shape": [{"dim": [{"size": "-5"}, {"size": "-6"}, {"size": "-7"}, {"size": "48"}]}, {"dim": [{"size": "3"}, {"size": "3"}, {"size": "48"}, {"size": "48"}]}]}}, "filter_format": {"s": "SFdJTw=="}, "data_format": {"s": "TkhXQw=="}, "strides": {"list": {"i": ["1", "1", "1", "1"]}}, "num_args": {"i": "1"}, "fused_ops": {"list": {"s": ["Qmlhc0FkZA=="]}}, "TArgs": {"list": {"type": ["DT_FLOAT"]}}, "padding": {"s": "U0FNRQ=="}, "use_cudnn_on_gpu": {"b": true}, "leakyrelu_alpha": {"f": 0.2}, "epsilon": {"f": 0.0}, "T": {"type": "DT_FLOAT"}, "explicit_paddings": {"list": {}}, "dilations": {"list": {"i": ["1", "1", "1", "1"]}}}}, {"name": "model/tf.math.sigmoid_5/Sigmoid", "op": "Sigmoid", "input": ["model/tf.math.add_7/Add"], "attr": {"_input_shapes": {"list": {"shape": [{"dim": [{"size": "-5"}, {"size": "-6"}, {"size": "-7"}, {"size": "48"}]}]}}, "T": {"type": "DT_FLOAT"}}}, {"name": "model/tf.math.multiply_25/Mul", "op": "Mul", "input": ["model/tf.math.add_7/Add", "model/tf.math.sigmoid_5/Sigmoid"], "attr": {"T": {"type": "DT_FLOAT"}}}, {"name": "model/tf.math.add_8/Add", "op": "_FusedConv2D", "input": ["model/tf.math.multiply_25/Mul", "model/tf.nn.convolution_6/convolution/filter", "model/tf.math.add_8/Add/y"], "device": "/device:CPU:0", "attr": {"num_host_args": {"i": "0"}, "data_format": {"s": "TkhXQw=="}, "filter_format": {"s": "SFdJTw=="}, "_input_shapes": {"list": {"shape": [{"dim": [{"size": "-5"}, {"size": "-6"}, {"size": "-7"}, {"size": "48"}]}, {"dim": [{"size": "3"}, {"size": "3"}, {"size": "48"}, {"size": "48"}]}]}}, "fused_ops": {"list": {"s": ["Qmlhc0FkZA=="]}}, "num_args": {"i": "1"}, "strides": {"list": {"i": ["1", "1", "1", "1"]}}, "TArgs": {"list": {"type": ["DT_FLOAT"]}}, "padding": {"s": "U0FNRQ=="}, "use_cudnn_on_gpu": {"b": true}, "leakyrelu_alpha": {"f": 0.2}, "epsilon": {"f": 0.0}, "T": {"type": "DT_FLOAT"}, "explicit_paddings": {"list": {}}, "dilations": {"list": {"i": ["1", "1", "1", "1"]}}}}, {"name": "model/tf.math.sigmoid_6/Sigmoid", "op": "Sigmoid", "input": ["model/tf.math.add_8/Add"], "attr": {"_input_shapes": {"list": {"shape": [{"dim": [{"size": "-5"}, {"size": "-6"}, {"size": "-7"}, {"size": "48"}]}]}}, "T": {"type": "DT_FLOAT"}}}, {"name": "model/tf.math.multiply_29/Mul", "op": "Mul", "input": ["model/tf.math.add_8/Add", "model/tf.math.sigmoid_6/Sigmoid"], "attr": {"T": {"type": "DT_FLOAT"}}}, {"name": "model/tf.math.add_10/Add", "op": "AddV2", "input": ["model/tf.math.add_6/Add", "model/tf.math.multiply_29/Mul"], "attr": {"T": {"type": "DT_FLOAT"}}}, {"name": "model/tf.concat/concat", "op": "ConcatV2", "input": ["model/tf.strided_slice/StridedSlice", "model/tf.strided_slice_1/StridedSlice", "model/tf.math.add_6/Add", "model/tf.math.add_10/Add", "model/tf.concat/concat/axis"], "attr": {"N": {"i": "4"}, "Tidx": {"type": "DT_INT32"}, "T": {"type": "DT_FLOAT"}}}, {"name": "model/tf.math.add_11/Add", "op": "_FusedConv2D", "input": ["model/tf.concat/concat", "model/tf.nn.convolution_7/convolution/filter", "model/tf.math.add_11/Add/y"], "device": "/device:CPU:0", "attr": {"num_host_args": {"i": "0"}, "_input_shapes": {"list": {"shape": [{"dim": [{"size": "-5"}, {"size": "-6"}, {"size": "-7"}, {"size": "192"}]}, {"dim": [{"size": "1"}, {"size": "1"}, {"size": "192"}, {"size": "96"}]}]}}, "filter_format": {"s": "SFdJTw=="}, "data_format": {"s": "TkhXQw=="}, "strides": {"list": {"i": ["1", "1", "1", "1"]}}, "num_args": {"i": "1"}, "fused_ops": {"list": {"s": ["Qmlhc0FkZA=="]}}, "TArgs": {"list": {"type": ["DT_FLOAT"]}}, "padding": {"s": "U0FNRQ=="}, "use_cudnn_on_gpu": {"b": true}, "leakyrelu_alpha": {"f": 0.2}, "epsilon": {"f": 0.0}, "T": {"type": "DT_FLOAT"}, "explicit_paddings": {"list": {}}, "dilations": {"list": {"i": ["1", "1", "1", "1"]}}}}, {"name": "model/tf.math.sigmoid_7/Sigmoid", "op": "Sigmoid", "input": ["model/tf.math.add_11/Add"], "attr": {"_input_shapes": {"list": {"shape": [{"dim": [{"size": "-5"}, {"size": "-6"}, {"size": "-7"}, {"size": "96"}]}]}}, "T": {"type": "DT_FLOAT"}}}, {"name": "model/tf.math.multiply_35/Mul", "op": "Mul", "input": ["model/tf.math.add_11/Add", "model/tf.math.sigmoid_7/Sigmoid"], "attr": {"T": {"type": "DT_FLOAT"}}}, {"name": "model/tf.compat.v1.pad_2/Pad", "op": "Pad", "input": ["model/tf.math.multiply_35/Mul", "model/tf.compat.v1.pad_2/Pad/paddings"], "attr": {"Tpaddings": {"type": "DT_INT32"}, "T": {"type": "DT_FLOAT"}}}, {"name": "model/tf.math.add_12/Add", "op": "_FusedConv2D", "input": ["model/tf.compat.v1.pad_2/Pad", "model/tf.nn.convolution_8/convolution/filter", "model/tf.math.add_12/Add/y"], "device": "/device:CPU:0", "attr": {"num_host_args": {"i": "0"}, "data_format": {"s": "TkhXQw=="}, "filter_format": {"s": "SFdJTw=="}, "_input_shapes": {"list": {"shape": [{"dim": [{"size": "-5"}, {"size": "-38"}, {"size": "-39"}, {"size": "96"}]}, {"dim": [{"size": "3"}, {"size": "3"}, {"size": "96"}, {"size": "192"}]}]}}, "fused_ops": {"list": {"s": ["Qmlhc0FkZA=="]}}, "num_args": {"i": "1"}, "strides": {"list": {"i": ["1", "2", "2", "1"]}}, "TArgs": {"list": {"type": ["DT_FLOAT"]}}, "padding": {"s": "VkFMSUQ="}, "use_cudnn_on_gpu": {"b": true}, "leakyrelu_alpha": {"f": 0.2}, "epsilon": {"f": 0.0}, "T": {"type": "DT_FLOAT"}, "explicit_paddings": {"list": {}}, "dilations": {"list": {"i": ["1", "1", "1", "1"]}}}}, {"name": "model/tf.math.sigmoid_8/Sigmoid", "op": "Sigmoid", "input": ["model/tf.math.add_12/Add"], "attr": {"_input_shapes": {"list": {"shape": [{"dim": [{"size": "-5"}, {"size": "-40"}, {"size": "-41"}, {"size": "192"}]}]}}, "T": {"type": "DT_FLOAT"}}}, {"name": "model/tf.math.multiply_39/Mul", "op": "Mul", "input": ["model/tf.math.add_12/Add", "model/tf.math.sigmoid_8/Sigmoid"], "attr": {"T": {"type": "DT_FLOAT"}}}, {"name": "model/tf.math.add_13/Add", "op": "_FusedConv2D", "input": ["model/tf.math.multiply_39/Mul", "model/tf.nn.convolution_9/convolution/filter", "model/tf.math.add_13/Add/y"], "device": "/device:CPU:0", "attr": {"num_host_args": {"i": "0"}, "data_format": {"s": "TkhXQw=="}, "filter_format": {"s": "SFdJTw=="}, "_input_shapes": {"list": {"shape": [{"dim": [{"size": "-5"}, {"size": "-40"}, {"size": "-41"}, {"size": "192"}]}, {"dim": [{"size": "1"}, {"size": "1"}, {"size": "192"}, {"size": "192"}]}]}}, "fused_ops": {"list": {"s": ["Qmlhc0FkZA=="]}}, "num_args": {"i": "1"}, "strides": {"list": {"i": ["1", "1", "1", "1"]}}, "TArgs": {"list": {"type": ["DT_FLOAT"]}}, "padding": {"s": "U0FNRQ=="}, "use_cudnn_on_gpu": {"b": true}, "leakyrelu_alpha": {"f": 0.2}, "epsilon": {"f": 0.0}, "T": {"type": "DT_FLOAT"}, "explicit_paddings": {"list": {}}, "dilations": {"list": {"i": ["1", "1", "1", "1"]}}}}, {"name": "model/tf.math.sigmoid_9/Sigmoid", "op": "Sigmoid", "input": ["model/tf.math.add_13/Add"], "attr": {"_input_shapes": {"list": {"shape": [{"dim": [{"size": "-5"}, {"size": "-40"}, {"size": "-41"}, {"size": "192"}]}]}}, "T": {"type": "DT_FLOAT"}}}, {"name": "model/tf.math.multiply_43/Mul", "op": "Mul", "input": ["model/tf.math.add_13/Add", "model/tf.math.sigmoid_9/Sigmoid"], "attr": {"T": {"type": "DT_FLOAT"}}}, {"name": "model/tf.strided_slice_2/StridedSlice", "op": "StridedSlice", "input": ["model/tf.math.multiply_43/Mul", "model/tf.strided_slice_2/ones_like/tensor", "model/tf.strided_slice_2/StridedSlice/end", "model/tf.strided_slice_2/ones_like"], "attr": {"shrink_axis_mask": {"i": "0"}, "new_axis_mask": {"i": "0"}, "Index": {"type": "DT_INT64"}, "begin_mask": {"i": "15"}, "end_mask": {"i": "7"}, "T": {"type": "DT_FLOAT"}, "ellipsis_mask": {"i": "0"}}}, {"name": "model/tf.strided_slice_3/StridedSlice", "op": "StridedSlice", "input": ["model/tf.math.multiply_43/Mul", "model/tf.strided_slice_3/ones_like/tensor", "model/tf.strided_slice_3/StridedSlice/end", "model/tf.strided_slice_3/ones_like"], "attr": {"shrink_axis_mask": {"i": "0"}, "Index": {"type": "DT_INT64"}, "new_axis_mask": {"i": "0"}, "begin_mask": {"i": "7"}, "end_mask": {"i": "7"}, "T": {"type": "DT_FLOAT"}, "ellipsis_mask": {"i": "0"}}}, {"name": "model/tf.math.add_14/Add", "op": "_FusedConv2D", "input": ["model/tf.strided_slice_3/StridedSlice", "model/tf.nn.convolution_10/convolution/filter", "model/tf.math.add_14/Add/y"], "device": "/device:CPU:0", "attr": {"num_host_args": {"i": "0"}, "_input_shapes": {"list": {"shape": [{"dim": [{"size": "-11"}, {"size": "-12"}, {"size": "-13"}, {"size": "96"}]}, {"dim": [{"size": "3"}, {"size": "3"}, {"size": "96"}, {"size": "96"}]}]}}, "filter_format": {"s": "SFdJTw=="}, "data_format": {"s": "TkhXQw=="}, "fused_ops": {"list": {"s": ["Qmlhc0FkZA=="]}}, "num_args": {"i": "1"}, "strides": {"list": {"i": ["1", "1", "1", "1"]}}, "TArgs": {"list": {"type": ["DT_FLOAT"]}}, "padding": {"s": "U0FNRQ=="}, "use_cudnn_on_gpu": {"b": true}, "leakyrelu_alpha": {"f": 0.2}, "epsilon": {"f": 0.0}, "T": {"type": "DT_FLOAT"}, "explicit_paddings": {"list": {}}, "dilations": {"list": {"i": ["1", "1", "1", "1"]}}}}, {"name": "model/tf.math.sigmoid_10/Sigmoid", "op": "Sigmoid", "input": ["model/tf.math.add_14/Add"], "attr": {"_input_shapes": {"list": {"shape": [{"dim": [{"size": "-11"}, {"size": "-12"}, {"size": "-13"}, {"size": "96"}]}]}}, "T": {"type": "DT_FLOAT"}}}, {"name": "model/tf.math.multiply_47/Mul", "op": "Mul", "input": ["model/tf.math.add_14/Add", "model/tf.math.sigmoid_10/Sigmoid"], "attr": {"T": {"type": "DT_FLOAT"}}}, {"name": "model/tf.math.add_15/Add", "op": "_FusedConv2D", "input": ["model/tf.math.multiply_47/Mul", "model/tf.nn.convolution_11/convolution/filter", "model/tf.math.add_15/Add/y"], "device": "/device:CPU:0", "attr": {"num_host_args": {"i": "0"}, "_input_shapes": {"list": {"shape": [{"dim": [{"size": "-11"}, {"size": "-12"}, {"size": "-13"}, {"size": "96"}]}, {"dim": [{"size": "3"}, {"size": "3"}, {"size": "96"}, {"size": "96"}]}]}}, "filter_format": {"s": "SFdJTw=="}, "data_format": {"s": "TkhXQw=="}, "strides": {"list": {"i": ["1", "1", "1", "1"]}}, "num_args": {"i": "1"}, "fused_ops": {"list": {"s": ["Qmlhc0FkZA=="]}}, "TArgs": {"list": {"type": ["DT_FLOAT"]}}, "padding": {"s": "U0FNRQ=="}, "use_cudnn_on_gpu": {"b": true}, "leakyrelu_alpha": {"f": 0.2}, "epsilon": {"f": 0.0}, "T": {"type": "DT_FLOAT"}, "explicit_paddings": {"list": {}}, "dilations": {"list": {"i": ["1", "1", "1", "1"]}}}}, {"name": "model/tf.math.sigmoid_11/Sigmoid", "op": "Sigmoid", "input": ["model/tf.math.add_15/Add"], "attr": {"_input_shapes": {"list": {"shape": [{"dim": [{"size": "-11"}, {"size": "-12"}, {"size": "-13"}, {"size": "96"}]}]}}, "T": {"type": "DT_FLOAT"}}}, {"name": "model/tf.math.multiply_51/Mul", "op": "Mul", "input": ["model/tf.math.add_15/Add", "model/tf.math.sigmoid_11/Sigmoid"], "attr": {"T": {"type": "DT_FLOAT"}}}, {"name": "model/tf.math.add_17/Add", "op": "AddV2", "input": ["model/tf.strided_slice_3/StridedSlice", "model/tf.math.multiply_51/Mul"], "attr": {"T": {"type": "DT_FLOAT"}}}, {"name": "model/tf.math.add_18/Add", "op": "_FusedConv2D", "input": ["model/tf.math.add_17/Add", "model/tf.nn.convolution_12/convolution/filter", "model/tf.math.add_18/Add/y"], "device": "/device:CPU:0", "attr": {"num_host_args": {"i": "0"}, "data_format": {"s": "TkhXQw=="}, "filter_format": {"s": "SFdJTw=="}, "_input_shapes": {"list": {"shape": [{"dim": [{"size": "-11"}, {"size": "-12"}, {"size": "-13"}, {"size": "96"}]}, {"dim": [{"size": "3"}, {"size": "3"}, {"size": "96"}, {"size": "96"}]}]}}, "fused_ops": {"list": {"s": ["Qmlhc0FkZA=="]}}, "num_args": {"i": "1"}, "strides": {"list": {"i": ["1", "1", "1", "1"]}}, "TArgs": {"list": {"type": ["DT_FLOAT"]}}, "padding": {"s": "U0FNRQ=="}, "use_cudnn_on_gpu": {"b": true}, "leakyrelu_alpha": {"f": 0.2}, "epsilon": {"f": 0.0}, "T": {"type": "DT_FLOAT"}, "explicit_paddings": {"list": {}}, "dilations": {"list": {"i": ["1", "1", "1", "1"]}}}}, {"name": "model/tf.math.sigmoid_12/Sigmoid", "op": "Sigmoid", "input": ["model/tf.math.add_18/Add"], "attr": {"_input_shapes": {"list": {"shape": [{"dim": [{"size": "-11"}, {"size": "-12"}, {"size": "-13"}, {"size": "96"}]}]}}, "T": {"type": "DT_FLOAT"}}}, {"name": "model/tf.math.multiply_57/Mul", "op": "Mul", "input": ["model/tf.math.add_18/Add", "model/tf.math.sigmoid_12/Sigmoid"], "attr": {"T": {"type": "DT_FLOAT"}}}, {"name": "model/tf.math.add_19/Add", "op": "_FusedConv2D", "input": ["model/tf.math.multiply_57/Mul", "model/tf.nn.convolution_13/convolution/filter", "model/tf.math.add_19/Add/y"], "device": "/device:CPU:0", "attr": {"num_host_args": {"i": "0"}, "data_format": {"s": "TkhXQw=="}, "filter_format": {"s": "SFdJTw=="}, "_input_shapes": {"list": {"shape": [{"dim": [{"size": "-11"}, {"size": "-12"}, {"size": "-13"}, {"size": "96"}]}, {"dim": [{"size": "3"}, {"size": "3"}, {"size": "96"}, {"size": "96"}]}]}}, "fused_ops": {"list": {"s": ["Qmlhc0FkZA=="]}}, "num_args": {"i": "1"}, "strides": {"list": {"i": ["1", "1", "1", "1"]}}, "TArgs": {"list": {"type": ["DT_FLOAT"]}}, "padding": {"s": "U0FNRQ=="}, "use_cudnn_on_gpu": {"b": true}, "leakyrelu_alpha": {"f": 0.2}, "epsilon": {"f": 0.0}, "T": {"type": "DT_FLOAT"}, "explicit_paddings": {"list": {}}, "dilations": {"list": {"i": ["1", "1", "1", "1"]}}}}, {"name": "model/tf.math.sigmoid_13/Sigmoid", "op": "Sigmoid", "input": ["model/tf.math.add_19/Add"], "attr": {"_input_shapes": {"list": {"shape": [{"dim": [{"size": "-11"}, {"size": "-12"}, {"size": "-13"}, {"size": "96"}]}]}}, "T": {"type": "DT_FLOAT"}}}, {"name": "model/tf.math.multiply_61/Mul", "op": "Mul", "input": ["model/tf.math.add_19/Add", "model/tf.math.sigmoid_13/Sigmoid"], "attr": {"T": {"type": "DT_FLOAT"}}}, {"name": "model/tf.math.add_21/Add", "op": "AddV2", "input": ["model/tf.math.add_17/Add", "model/tf.math.multiply_61/Mul"], "attr": {"T": {"type": "DT_FLOAT"}}}, {"name": "model/tf.math.add_22/Add", "op": "_FusedConv2D", "input": ["model/tf.math.add_21/Add", "model/tf.nn.convolution_14/convolution/filter", "model/tf.math.add_22/Add/y"], "device": "/device:CPU:0", "attr": {"num_host_args": {"i": "0"}, "data_format": {"s": "TkhXQw=="}, "filter_format": {"s": "SFdJTw=="}, "_input_shapes": {"list": {"shape": [{"dim": [{"size": "-11"}, {"size": "-12"}, {"size": "-13"}, {"size": "96"}]}, {"dim": [{"size": "3"}, {"size": "3"}, {"size": "96"}, {"size": "96"}]}]}}, "strides": {"list": {"i": ["1", "1", "1", "1"]}}, "num_args": {"i": "1"}, "fused_ops": {"list": {"s": ["Qmlhc0FkZA=="]}}, "TArgs": {"list": {"type": ["DT_FLOAT"]}}, "padding": {"s": "U0FNRQ=="}, "use_cudnn_on_gpu": {"b": true}, "leakyrelu_alpha": {"f": 0.2}, "epsilon": {"f": 0.0}, "T": {"type": "DT_FLOAT"}, "explicit_paddings": {"list": {}}, "dilations": {"list": {"i": ["1", "1", "1", "1"]}}}}, {"name": "model/tf.math.sigmoid_14/Sigmoid", "op": "Sigmoid", "input": ["model/tf.math.add_22/Add"], "attr": {"_input_shapes": {"list": {"shape": [{"dim": [{"size": "-11"}, {"size": "-12"}, {"size": "-13"}, {"size": "96"}]}]}}, "T": {"type": "DT_FLOAT"}}}, {"name": "model/tf.math.multiply_67/Mul", "op": "Mul", "input": ["model/tf.math.add_22/Add", "model/tf.math.sigmoid_14/Sigmoid"], "attr": {"T": {"type": "DT_FLOAT"}}}, {"name": "model/tf.math.add_23/Add", "op": "_FusedConv2D", "input": ["model/tf.math.multiply_67/Mul", "model/tf.nn.convolution_15/convolution/filter", "model/tf.math.add_23/Add/y"], "device": "/device:CPU:0", "attr": {"num_host_args": {"i": "0"}, "_input_shapes": {"list": {"shape": [{"dim": [{"size": "-11"}, {"size": "-12"}, {"size": "-13"}, {"size": "96"}]}, {"dim": [{"size": "3"}, {"size": "3"}, {"size": "96"}, {"size": "96"}]}]}}, "filter_format": {"s": "SFdJTw=="}, "data_format": {"s": "TkhXQw=="}, "strides": {"list": {"i": ["1", "1", "1", "1"]}}, "num_args": {"i": "1"}, "fused_ops": {"list": {"s": ["Qmlhc0FkZA=="]}}, "TArgs": {"list": {"type": ["DT_FLOAT"]}}, "padding": {"s": "U0FNRQ=="}, "use_cudnn_on_gpu": {"b": true}, "leakyrelu_alpha": {"f": 0.2}, "epsilon": {"f": 0.0}, "T": {"type": "DT_FLOAT"}, "explicit_paddings": {"list": {}}, "dilations": {"list": {"i": ["1", "1", "1", "1"]}}}}, {"name": "model/tf.math.sigmoid_15/Sigmoid", "op": "Sigmoid", "input": ["model/tf.math.add_23/Add"], "attr": {"_input_shapes": {"list": {"shape": [{"dim": [{"size": "-11"}, {"size": "-12"}, {"size": "-13"}, {"size": "96"}]}]}}, "T": {"type": "DT_FLOAT"}}}, {"name": "model/tf.math.multiply_71/Mul", "op": "Mul", "input": ["model/tf.math.add_23/Add", "model/tf.math.sigmoid_15/Sigmoid"], "attr": {"T": {"type": "DT_FLOAT"}}}, {"name": "model/tf.math.add_25/Add", "op": "AddV2", "input": ["model/tf.math.add_21/Add", "model/tf.math.multiply_71/Mul"], "attr": {"T": {"type": "DT_FLOAT"}}}, {"name": "model/tf.math.add_26/Add", "op": "_FusedConv2D", "input": ["model/tf.math.add_25/Add", "model/tf.nn.convolution_16/convolution/filter", "model/tf.math.add_26/Add/y"], "device": "/device:CPU:0", "attr": {"num_host_args": {"i": "0"}, "_input_shapes": {"list": {"shape": [{"dim": [{"size": "-11"}, {"size": "-12"}, {"size": "-13"}, {"size": "96"}]}, {"dim": [{"size": "3"}, {"size": "3"}, {"size": "96"}, {"size": "96"}]}]}}, "filter_format": {"s": "SFdJTw=="}, "data_format": {"s": "TkhXQw=="}, "strides": {"list": {"i": ["1", "1", "1", "1"]}}, "num_args": {"i": "1"}, "fused_ops": {"list": {"s": ["Qmlhc0FkZA=="]}}, "TArgs": {"list": {"type": ["DT_FLOAT"]}}, "padding": {"s": "U0FNRQ=="}, "use_cudnn_on_gpu": {"b": true}, "leakyrelu_alpha": {"f": 0.2}, "epsilon": {"f": 0.0}, "T": {"type": "DT_FLOAT"}, "explicit_paddings": {"list": {}}, "dilations": {"list": {"i": ["1", "1", "1", "1"]}}}}, {"name": "model/tf.math.sigmoid_16/Sigmoid", "op": "Sigmoid", "input": ["model/tf.math.add_26/Add"], "attr": {"_input_shapes": {"list": {"shape": [{"dim": [{"size": "-11"}, {"size": "-12"}, {"size": "-13"}, {"size": "96"}]}]}}, "T": {"type": "DT_FLOAT"}}}, {"name": "model/tf.math.multiply_77/Mul", "op": "Mul", "input": ["model/tf.math.add_26/Add", "model/tf.math.sigmoid_16/Sigmoid"], "attr": {"T": {"type": "DT_FLOAT"}}}, {"name": "model/tf.math.add_27/Add", "op": "_FusedConv2D", "input": ["model/tf.math.multiply_77/Mul", "model/tf.nn.convolution_17/convolution/filter", "model/tf.math.add_27/Add/y"], "device": "/device:CPU:0", "attr": {"num_host_args": {"i": "0"}, "data_format": {"s": "TkhXQw=="}, "filter_format": {"s": "SFdJTw=="}, "_input_shapes": {"list": {"shape": [{"dim": [{"size": "-11"}, {"size": "-12"}, {"size": "-13"}, {"size": "96"}]}, {"dim": [{"size": "3"}, {"size": "3"}, {"size": "96"}, {"size": "96"}]}]}}, "strides": {"list": {"i": ["1", "1", "1", "1"]}}, "num_args": {"i": "1"}, "fused_ops": {"list": {"s": ["Qmlhc0FkZA=="]}}, "TArgs": {"list": {"type": ["DT_FLOAT"]}}, "padding": {"s": "U0FNRQ=="}, "use_cudnn_on_gpu": {"b": true}, "leakyrelu_alpha": {"f": 0.2}, "epsilon": {"f": 0.0}, "T": {"type": "DT_FLOAT"}, "explicit_paddings": {"list": {}}, "dilations": {"list": {"i": ["1", "1", "1", "1"]}}}}, {"name": "model/tf.math.sigmoid_17/Sigmoid", "op": "Sigmoid", "input": ["model/tf.math.add_27/Add"], "attr": {"_input_shapes": {"list": {"shape": [{"dim": [{"size": "-11"}, {"size": "-12"}, {"size": "-13"}, {"size": "96"}]}]}}, "T": {"type": "DT_FLOAT"}}}, {"name": "model/tf.math.multiply_81/Mul", "op": "Mul", "input": ["model/tf.math.add_27/Add", "model/tf.math.sigmoid_17/Sigmoid"], "attr": {"T": {"type": "DT_FLOAT"}}}, {"name": "model/tf.math.add_29/Add", "op": "AddV2", "input": ["model/tf.math.add_25/Add", "model/tf.math.multiply_81/Mul"], "attr": {"T": {"type": "DT_FLOAT"}}}, {"name": "model/tf.concat_1/concat", "op": "ConcatV2", "input": ["model/tf.strided_slice_2/StridedSlice", "model/tf.strided_slice_3/StridedSlice", "model/tf.math.add_17/Add", "model/tf.math.add_21/Add", "model/tf.math.add_25/Add", "model/tf.math.add_29/Add", "model/tf.concat_1/concat/axis"], "attr": {"N": {"i": "6"}, "Tidx": {"type": "DT_INT32"}, "T": {"type": "DT_FLOAT"}}}, {"name": "model/tf.math.add_30/Add", "op": "_FusedConv2D", "input": ["model/tf.concat_1/concat", "model/tf.nn.convolution_18/convolution/filter", "model/tf.math.add_30/Add/y"], "device": "/device:CPU:0", "attr": {"num_host_args": {"i": "0"}, "data_format": {"s": "TkhXQw=="}, "filter_format": {"s": "SFdJTw=="}, "_input_shapes": {"list": {"shape": [{"dim": [{"size": "-11"}, {"size": "-12"}, {"size": "-13"}, {"size": "576"}]}, {"dim": [{"size": "1"}, {"size": "1"}, {"size": "576"}, {"size": "192"}]}]}}, "strides": {"list": {"i": ["1", "1", "1", "1"]}}, "num_args": {"i": "1"}, "fused_ops": {"list": {"s": ["Qmlhc0FkZA=="]}}, "TArgs": {"list": {"type": ["DT_FLOAT"]}}, "padding": {"s": "U0FNRQ=="}, "use_cudnn_on_gpu": {"b": true}, "leakyrelu_alpha": {"f": 0.2}, "epsilon": {"f": 0.0}, "T": {"type": "DT_FLOAT"}, "explicit_paddings": {"list": {}}, "dilations": {"list": {"i": ["1", "1", "1", "1"]}}}}, {"name": "model/tf.math.sigmoid_18/Sigmoid", "op": "Sigmoid", "input": ["model/tf.math.add_30/Add"], "attr": {"_input_shapes": {"list": {"shape": [{"dim": [{"size": "-11"}, {"size": "-12"}, {"size": "-13"}, {"size": "192"}]}]}}, "T": {"type": "DT_FLOAT"}}}, {"name": "model/tf.math.multiply_87/Mul", "op": "Mul", "input": ["model/tf.math.add_30/Add", "model/tf.math.sigmoid_18/Sigmoid"], "attr": {"T": {"type": "DT_FLOAT"}}}, {"name": "model/tf.compat.v1.pad_3/Pad", "op": "Pad", "input": ["model/tf.math.multiply_87/Mul", "model/tf.compat.v1.pad_3/Pad/paddings"], "attr": {"Tpaddings": {"type": "DT_INT32"}, "T": {"type": "DT_FLOAT"}}}, {"name": "model/tf.math.add_31/Add", "op": "_FusedConv2D", "input": ["model/tf.compat.v1.pad_3/Pad", "model/tf.nn.convolution_19/convolution/filter", "model/tf.math.add_31/Add/y"], "device": "/device:CPU:0", "attr": {"num_host_args": {"i": "0"}, "data_format": {"s": "TkhXQw=="}, "filter_format": {"s": "SFdJTw=="}, "_input_shapes": {"list": {"shape": [{"dim": [{"size": "-11"}, {"size": "-42"}, {"size": "-43"}, {"size": "192"}]}, {"dim": [{"size": "3"}, {"size": "3"}, {"size": "192"}, {"size": "384"}]}]}}, "fused_ops": {"list": {"s": ["Qmlhc0FkZA=="]}}, "num_args": {"i": "1"}, "strides": {"list": {"i": ["1", "2", "2", "1"]}}, "TArgs": {"list": {"type": ["DT_FLOAT"]}}, "padding": {"s": "VkFMSUQ="}, "use_cudnn_on_gpu": {"b": true}, "leakyrelu_alpha": {"f": 0.2}, "epsilon": {"f": 0.0}, "T": {"type": "DT_FLOAT"}, "explicit_paddings": {"list": {}}, "dilations": {"list": {"i": ["1", "1", "1", "1"]}}}}, {"name": "model/tf.math.sigmoid_19/Sigmoid", "op": "Sigmoid", "input": ["model/tf.math.add_31/Add"], "attr": {"_input_shapes": {"list": {"shape": [{"dim": [{"size": "-11"}, {"size": "-44"}, {"size": "-45"}, {"size": "384"}]}]}}, "T": {"type": "DT_FLOAT"}}}, {"name": "model/tf.math.multiply_91/Mul", "op": "Mul", "input": ["model/tf.math.add_31/Add", "model/tf.math.sigmoid_19/Sigmoid"], "attr": {"T": {"type": "DT_FLOAT"}}}, {"name": "model/tf.math.add_32/Add", "op": "_FusedConv2D", "input": ["model/tf.math.multiply_91/Mul", "model/tf.nn.convolution_20/convolution/filter", "model/tf.math.add_32/Add/y"], "device": "/device:CPU:0", "attr": {"num_host_args": {"i": "0"}, "data_format": {"s": "TkhXQw=="}, "filter_format": {"s": "SFdJTw=="}, "_input_shapes": {"list": {"shape": [{"dim": [{"size": "-11"}, {"size": "-44"}, {"size": "-45"}, {"size": "384"}]}, {"dim": [{"size": "1"}, {"size": "1"}, {"size": "384"}, {"size": "384"}]}]}}, "strides": {"list": {"i": ["1", "1", "1", "1"]}}, "num_args": {"i": "1"}, "fused_ops": {"list": {"s": ["Qmlhc0FkZA=="]}}, "TArgs": {"list": {"type": ["DT_FLOAT"]}}, "padding": {"s": "U0FNRQ=="}, "use_cudnn_on_gpu": {"b": true}, "leakyrelu_alpha": {"f": 0.2}, "epsilon": {"f": 0.0}, "T": {"type": "DT_FLOAT"}, "explicit_paddings": {"list": {}}, "dilations": {"list": {"i": ["1", "1", "1", "1"]}}}}, {"name": "model/tf.math.sigmoid_20/Sigmoid", "op": "Sigmoid", "input": ["model/tf.math.add_32/Add"], "attr": {"_input_shapes": {"list": {"shape": [{"dim": [{"size": "-11"}, {"size": "-44"}, {"size": "-45"}, {"size": "384"}]}]}}, "T": {"type": "DT_FLOAT"}}}, {"name": "model/tf.math.multiply_95/Mul", "op": "Mul", "input": ["model/tf.math.add_32/Add", "model/tf.math.sigmoid_20/Sigmoid"], "attr": {"T": {"type": "DT_FLOAT"}}}, {"name": "model/tf.strided_slice_4/StridedSlice", "op": "StridedSlice", "input": ["model/tf.math.multiply_95/Mul", "model/tf.strided_slice_4/ones_like/tensor", "model/tf.strided_slice_4/StridedSlice/end", "model/tf.strided_slice_4/ones_like"], "attr": {"shrink_axis_mask": {"i": "0"}, "new_axis_mask": {"i": "0"}, "Index": {"type": "DT_INT64"}, "begin_mask": {"i": "15"}, "end_mask": {"i": "7"}, "T": {"type": "DT_FLOAT"}, "ellipsis_mask": {"i": "0"}}}, {"name": "model/tf.strided_slice_5/StridedSlice", "op": "StridedSlice", "input": ["model/tf.math.multiply_95/Mul", "model/tf.strided_slice_5/ones_like/tensor", "model/tf.strided_slice_5/StridedSlice/end", "model/tf.strided_slice_5/ones_like"], "attr": {"shrink_axis_mask": {"i": "0"}, "new_axis_mask": {"i": "0"}, "Index": {"type": "DT_INT64"}, "begin_mask": {"i": "7"}, "T": {"type": "DT_FLOAT"}, "end_mask": {"i": "7"}, "ellipsis_mask": {"i": "0"}}}, {"name": "model/tf.math.add_33/Add", "op": "_FusedConv2D", "input": ["model/tf.strided_slice_5/StridedSlice", "model/tf.nn.convolution_21/convolution/filter", "model/tf.math.add_33/Add/y"], "device": "/device:CPU:0", "attr": {"num_host_args": {"i": "0"}, "_input_shapes": {"list": {"shape": [{"dim": [{"size": "-17"}, {"size": "-18"}, {"size": "-19"}, {"size": "192"}]}, {"dim": [{"size": "3"}, {"size": "3"}, {"size": "192"}, {"size": "192"}]}]}}, "filter_format": {"s": "SFdJTw=="}, "data_format": {"s": "TkhXQw=="}, "fused_ops": {"list": {"s": ["Qmlhc0FkZA=="]}}, "num_args": {"i": "1"}, "strides": {"list": {"i": ["1", "1", "1", "1"]}}, "TArgs": {"list": {"type": ["DT_FLOAT"]}}, "padding": {"s": "U0FNRQ=="}, "use_cudnn_on_gpu": {"b": true}, "leakyrelu_alpha": {"f": 0.2}, "epsilon": {"f": 0.0}, "T": {"type": "DT_FLOAT"}, "explicit_paddings": {"list": {}}, "dilations": {"list": {"i": ["1", "1", "1", "1"]}}}}, {"name": "model/tf.math.sigmoid_21/Sigmoid", "op": "Sigmoid", "input": ["model/tf.math.add_33/Add"], "attr": {"_input_shapes": {"list": {"shape": [{"dim": [{"size": "-17"}, {"size": "-18"}, {"size": "-19"}, {"size": "192"}]}]}}, "T": {"type": "DT_FLOAT"}}}, {"name": "model/tf.math.multiply_99/Mul", "op": "Mul", "input": ["model/tf.math.add_33/Add", "model/tf.math.sigmoid_21/Sigmoid"], "attr": {"T": {"type": "DT_FLOAT"}}}, {"name": "model/tf.math.add_34/Add", "op": "_FusedConv2D", "input": ["model/tf.math.multiply_99/Mul", "model/tf.nn.convolution_22/convolution/filter", "model/tf.math.add_34/Add/y"], "device": "/device:CPU:0", "attr": {"num_host_args": {"i": "0"}, "data_format": {"s": "TkhXQw=="}, "filter_format": {"s": "SFdJTw=="}, "_input_shapes": {"list": {"shape": [{"dim": [{"size": "-17"}, {"size": "-18"}, {"size": "-19"}, {"size": "192"}]}, {"dim": [{"size": "3"}, {"size": "3"}, {"size": "192"}, {"size": "192"}]}]}}, "strides": {"list": {"i": ["1", "1", "1", "1"]}}, "num_args": {"i": "1"}, "fused_ops": {"list": {"s": ["Qmlhc0FkZA=="]}}, "TArgs": {"list": {"type": ["DT_FLOAT"]}}, "padding": {"s": "U0FNRQ=="}, "use_cudnn_on_gpu": {"b": true}, "leakyrelu_alpha": {"f": 0.2}, "epsilon": {"f": 0.0}, "T": {"type": "DT_FLOAT"}, "explicit_paddings": {"list": {}}, "dilations": {"list": {"i": ["1", "1", "1", "1"]}}}}, {"name": "model/tf.math.sigmoid_22/Sigmoid", "op": "Sigmoid", "input": ["model/tf.math.add_34/Add"], "attr": {"_input_shapes": {"list": {"shape": [{"dim": [{"size": "-17"}, {"size": "-18"}, {"size": "-19"}, {"size": "192"}]}]}}, "T": {"type": "DT_FLOAT"}}}, {"name": "model/tf.math.multiply_103/Mul", "op": "Mul", "input": ["model/tf.math.add_34/Add", "model/tf.math.sigmoid_22/Sigmoid"], "attr": {"T": {"type": "DT_FLOAT"}}}, {"name": "model/tf.math.add_36/Add", "op": "AddV2", "input": ["model/tf.strided_slice_5/StridedSlice", "model/tf.math.multiply_103/Mul"], "attr": {"T": {"type": "DT_FLOAT"}}}, {"name": "model/tf.math.add_37/Add", "op": "_FusedConv2D", "input": ["model/tf.math.add_36/Add", "model/tf.nn.convolution_23/convolution/filter", "model/tf.math.add_37/Add/y"], "device": "/device:CPU:0", "attr": {"num_host_args": {"i": "0"}, "data_format": {"s": "TkhXQw=="}, "filter_format": {"s": "SFdJTw=="}, "_input_shapes": {"list": {"shape": [{"dim": [{"size": "-17"}, {"size": "-18"}, {"size": "-19"}, {"size": "192"}]}, {"dim": [{"size": "3"}, {"size": "3"}, {"size": "192"}, {"size": "192"}]}]}}, "strides": {"list": {"i": ["1", "1", "1", "1"]}}, "num_args": {"i": "1"}, "fused_ops": {"list": {"s": ["Qmlhc0FkZA=="]}}, "TArgs": {"list": {"type": ["DT_FLOAT"]}}, "padding": {"s": "U0FNRQ=="}, "use_cudnn_on_gpu": {"b": true}, "leakyrelu_alpha": {"f": 0.2}, "epsilon": {"f": 0.0}, "T": {"type": "DT_FLOAT"}, "explicit_paddings": {"list": {}}, "dilations": {"list": {"i": ["1", "1", "1", "1"]}}}}, {"name": "model/tf.math.sigmoid_23/Sigmoid", "op": "Sigmoid", "input": ["model/tf.math.add_37/Add"], "attr": {"_input_shapes": {"list": {"shape": [{"dim": [{"size": "-17"}, {"size": "-18"}, {"size": "-19"}, {"size": "192"}]}]}}, "T": {"type": "DT_FLOAT"}}}, {"name": "model/tf.math.multiply_109/Mul", "op": "Mul", "input": ["model/tf.math.add_37/Add", "model/tf.math.sigmoid_23/Sigmoid"], "attr": {"T": {"type": "DT_FLOAT"}}}, {"name": "model/tf.math.add_38/Add", "op": "_FusedConv2D", "input": ["model/tf.math.multiply_109/Mul", "model/tf.nn.convolution_24/convolution/filter", "model/tf.math.add_38/Add/y"], "device": "/device:CPU:0", "attr": {"num_host_args": {"i": "0"}, "data_format": {"s": "TkhXQw=="}, "filter_format": {"s": "SFdJTw=="}, "_input_shapes": {"list": {"shape": [{"dim": [{"size": "-17"}, {"size": "-18"}, {"size": "-19"}, {"size": "192"}]}, {"dim": [{"size": "3"}, {"size": "3"}, {"size": "192"}, {"size": "192"}]}]}}, "strides": {"list": {"i": ["1", "1", "1", "1"]}}, "num_args": {"i": "1"}, "fused_ops": {"list": {"s": ["Qmlhc0FkZA=="]}}, "TArgs": {"list": {"type": ["DT_FLOAT"]}}, "padding": {"s": "U0FNRQ=="}, "use_cudnn_on_gpu": {"b": true}, "leakyrelu_alpha": {"f": 0.2}, "epsilon": {"f": 0.0}, "T": {"type": "DT_FLOAT"}, "explicit_paddings": {"list": {}}, "dilations": {"list": {"i": ["1", "1", "1", "1"]}}}}, {"name": "model/tf.math.sigmoid_24/Sigmoid", "op": "Sigmoid", "input": ["model/tf.math.add_38/Add"], "attr": {"_input_shapes": {"list": {"shape": [{"dim": [{"size": "-17"}, {"size": "-18"}, {"size": "-19"}, {"size": "192"}]}]}}, "T": {"type": "DT_FLOAT"}}}, {"name": "model/tf.math.multiply_113/Mul", "op": "Mul", "input": ["model/tf.math.add_38/Add", "model/tf.math.sigmoid_24/Sigmoid"], "attr": {"T": {"type": "DT_FLOAT"}}}, {"name": "model/tf.math.add_40/Add", "op": "AddV2", "input": ["model/tf.math.add_36/Add", "model/tf.math.multiply_113/Mul"], "attr": {"T": {"type": "DT_FLOAT"}}}, {"name": "model/tf.math.add_41/Add", "op": "_FusedConv2D", "input": ["model/tf.math.add_40/Add", "model/tf.nn.convolution_25/convolution/filter", "model/tf.math.add_41/Add/y"], "device": "/device:CPU:0", "attr": {"num_host_args": {"i": "0"}, "data_format": {"s": "TkhXQw=="}, "filter_format": {"s": "SFdJTw=="}, "_input_shapes": {"list": {"shape": [{"dim": [{"size": "-17"}, {"size": "-18"}, {"size": "-19"}, {"size": "192"}]}, {"dim": [{"size": "3"}, {"size": "3"}, {"size": "192"}, {"size": "192"}]}]}}, "strides": {"list": {"i": ["1", "1", "1", "1"]}}, "num_args": {"i": "1"}, "fused_ops": {"list": {"s": ["Qmlhc0FkZA=="]}}, "TArgs": {"list": {"type": ["DT_FLOAT"]}}, "padding": {"s": "U0FNRQ=="}, "use_cudnn_on_gpu": {"b": true}, "leakyrelu_alpha": {"f": 0.2}, "epsilon": {"f": 0.0}, "T": {"type": "DT_FLOAT"}, "explicit_paddings": {"list": {}}, "dilations": {"list": {"i": ["1", "1", "1", "1"]}}}}, {"name": "model/tf.math.sigmoid_25/Sigmoid", "op": "Sigmoid", "input": ["model/tf.math.add_41/Add"], "attr": {"_input_shapes": {"list": {"shape": [{"dim": [{"size": "-17"}, {"size": "-18"}, {"size": "-19"}, {"size": "192"}]}]}}, "T": {"type": "DT_FLOAT"}}}, {"name": "model/tf.math.multiply_119/Mul", "op": "Mul", "input": ["model/tf.math.add_41/Add", "model/tf.math.sigmoid_25/Sigmoid"], "attr": {"T": {"type": "DT_FLOAT"}}}, {"name": "model/tf.math.add_42/Add", "op": "_FusedConv2D", "input": ["model/tf.math.multiply_119/Mul", "model/tf.nn.convolution_26/convolution/filter", "model/tf.math.add_42/Add/y"], "device": "/device:CPU:0", "attr": {"num_host_args": {"i": "0"}, "_input_shapes": {"list": {"shape": [{"dim": [{"size": "-17"}, {"size": "-18"}, {"size": "-19"}, {"size": "192"}]}, {"dim": [{"size": "3"}, {"size": "3"}, {"size": "192"}, {"size": "192"}]}]}}, "filter_format": {"s": "SFdJTw=="}, "data_format": {"s": "TkhXQw=="}, "fused_ops": {"list": {"s": ["Qmlhc0FkZA=="]}}, "num_args": {"i": "1"}, "strides": {"list": {"i": ["1", "1", "1", "1"]}}, "TArgs": {"list": {"type": ["DT_FLOAT"]}}, "padding": {"s": "U0FNRQ=="}, "use_cudnn_on_gpu": {"b": true}, "leakyrelu_alpha": {"f": 0.2}, "epsilon": {"f": 0.0}, "T": {"type": "DT_FLOAT"}, "explicit_paddings": {"list": {}}, "dilations": {"list": {"i": ["1", "1", "1", "1"]}}}}, {"name": "model/tf.math.sigmoid_26/Sigmoid", "op": "Sigmoid", "input": ["model/tf.math.add_42/Add"], "attr": {"_input_shapes": {"list": {"shape": [{"dim": [{"size": "-17"}, {"size": "-18"}, {"size": "-19"}, {"size": "192"}]}]}}, "T": {"type": "DT_FLOAT"}}}, {"name": "model/tf.math.multiply_123/Mul", "op": "Mul", "input": ["model/tf.math.add_42/Add", "model/tf.math.sigmoid_26/Sigmoid"], "attr": {"T": {"type": "DT_FLOAT"}}}, {"name": "model/tf.math.add_44/Add", "op": "AddV2", "input": ["model/tf.math.add_40/Add", "model/tf.math.multiply_123/Mul"], "attr": {"T": {"type": "DT_FLOAT"}}}, {"name": "model/tf.math.add_45/Add", "op": "_FusedConv2D", "input": ["model/tf.math.add_44/Add", "model/tf.nn.convolution_27/convolution/filter", "model/tf.math.add_45/Add/y"], "device": "/device:CPU:0", "attr": {"num_host_args": {"i": "0"}, "data_format": {"s": "TkhXQw=="}, "filter_format": {"s": "SFdJTw=="}, "_input_shapes": {"list": {"shape": [{"dim": [{"size": "-17"}, {"size": "-18"}, {"size": "-19"}, {"size": "192"}]}, {"dim": [{"size": "3"}, {"size": "3"}, {"size": "192"}, {"size": "192"}]}]}}, "strides": {"list": {"i": ["1", "1", "1", "1"]}}, "num_args": {"i": "1"}, "fused_ops": {"list": {"s": ["Qmlhc0FkZA=="]}}, "TArgs": {"list": {"type": ["DT_FLOAT"]}}, "padding": {"s": "U0FNRQ=="}, "use_cudnn_on_gpu": {"b": true}, "leakyrelu_alpha": {"f": 0.2}, "epsilon": {"f": 0.0}, "T": {"type": "DT_FLOAT"}, "explicit_paddings": {"list": {}}, "dilations": {"list": {"i": ["1", "1", "1", "1"]}}}}, {"name": "model/tf.math.sigmoid_27/Sigmoid", "op": "Sigmoid", "input": ["model/tf.math.add_45/Add"], "attr": {"_input_shapes": {"list": {"shape": [{"dim": [{"size": "-17"}, {"size": "-18"}, {"size": "-19"}, {"size": "192"}]}]}}, "T": {"type": "DT_FLOAT"}}}, {"name": "model/tf.math.multiply_129/Mul", "op": "Mul", "input": ["model/tf.math.add_45/Add", "model/tf.math.sigmoid_27/Sigmoid"], "attr": {"T": {"type": "DT_FLOAT"}}}, {"name": "model/tf.math.add_46/Add", "op": "_FusedConv2D", "input": ["model/tf.math.multiply_129/Mul", "model/tf.nn.convolution_28/convolution/filter", "model/tf.math.add_46/Add/y"], "device": "/device:CPU:0", "attr": {"num_host_args": {"i": "0"}, "data_format": {"s": "TkhXQw=="}, "filter_format": {"s": "SFdJTw=="}, "_input_shapes": {"list": {"shape": [{"dim": [{"size": "-17"}, {"size": "-18"}, {"size": "-19"}, {"size": "192"}]}, {"dim": [{"size": "3"}, {"size": "3"}, {"size": "192"}, {"size": "192"}]}]}}, "strides": {"list": {"i": ["1", "1", "1", "1"]}}, "num_args": {"i": "1"}, "fused_ops": {"list": {"s": ["Qmlhc0FkZA=="]}}, "TArgs": {"list": {"type": ["DT_FLOAT"]}}, "padding": {"s": "U0FNRQ=="}, "use_cudnn_on_gpu": {"b": true}, "leakyrelu_alpha": {"f": 0.2}, "epsilon": {"f": 0.0}, "T": {"type": "DT_FLOAT"}, "explicit_paddings": {"list": {}}, "dilations": {"list": {"i": ["1", "1", "1", "1"]}}}}, {"name": "model/tf.math.sigmoid_28/Sigmoid", "op": "Sigmoid", "input": ["model/tf.math.add_46/Add"], "attr": {"_input_shapes": {"list": {"shape": [{"dim": [{"size": "-17"}, {"size": "-18"}, {"size": "-19"}, {"size": "192"}]}]}}, "T": {"type": "DT_FLOAT"}}}, {"name": "model/tf.math.multiply_133/Mul", "op": "Mul", "input": ["model/tf.math.add_46/Add", "model/tf.math.sigmoid_28/Sigmoid"], "attr": {"T": {"type": "DT_FLOAT"}}}, {"name": "model/tf.math.add_48/Add", "op": "AddV2", "input": ["model/tf.math.add_44/Add", "model/tf.math.multiply_133/Mul"], "attr": {"T": {"type": "DT_FLOAT"}}}, {"name": "model/tf.concat_2/concat", "op": "ConcatV2", "input": ["model/tf.strided_slice_4/StridedSlice", "model/tf.strided_slice_5/StridedSlice", "model/tf.math.add_36/Add", "model/tf.math.add_40/Add", "model/tf.math.add_44/Add", "model/tf.math.add_48/Add", "model/tf.concat_2/concat/axis"], "attr": {"N": {"i": "6"}, "T": {"type": "DT_FLOAT"}, "Tidx": {"type": "DT_INT32"}}}, {"name": "model/tf.math.add_49/Add", "op": "_FusedConv2D", "input": ["model/tf.concat_2/concat", "model/tf.nn.convolution_29/convolution/filter", "model/tf.math.add_49/Add/y"], "device": "/device:CPU:0", "attr": {"num_host_args": {"i": "0"}, "_input_shapes": {"list": {"shape": [{"dim": [{"size": "-17"}, {"size": "-18"}, {"size": "-19"}, {"size": "1152"}]}, {"dim": [{"size": "1"}, {"size": "1"}, {"size": "1152"}, {"size": "384"}]}]}}, "filter_format": {"s": "SFdJTw=="}, "data_format": {"s": "TkhXQw=="}, "strides": {"list": {"i": ["1", "1", "1", "1"]}}, "num_args": {"i": "1"}, "fused_ops": {"list": {"s": ["Qmlhc0FkZA=="]}}, "TArgs": {"list": {"type": ["DT_FLOAT"]}}, "padding": {"s": "U0FNRQ=="}, "use_cudnn_on_gpu": {"b": true}, "leakyrelu_alpha": {"f": 0.2}, "epsilon": {"f": 0.0}, "T": {"type": "DT_FLOAT"}, "explicit_paddings": {"list": {}}, "dilations": {"list": {"i": ["1", "1", "1", "1"]}}}}, {"name": "model/tf.math.sigmoid_29/Sigmoid", "op": "Sigmoid", "input": ["model/tf.math.add_49/Add"], "attr": {"_input_shapes": {"list": {"shape": [{"dim": [{"size": "-17"}, {"size": "-18"}, {"size": "-19"}, {"size": "384"}]}]}}, "T": {"type": "DT_FLOAT"}}}, {"name": "model/tf.math.multiply_139/Mul", "op": "Mul", "input": ["model/tf.math.add_49/Add", "model/tf.math.sigmoid_29/Sigmoid"], "attr": {"T": {"type": "DT_FLOAT"}}}, {"name": "model/tf.compat.v1.pad_4/Pad", "op": "Pad", "input": ["model/tf.math.multiply_139/Mul", "model/tf.compat.v1.pad_4/Pad/paddings"], "attr": {"Tpaddings": {"type": "DT_INT32"}, "T": {"type": "DT_FLOAT"}}}, {"name": "model/tf.math.add_50/Add", "op": "_FusedConv2D", "input": ["model/tf.compat.v1.pad_4/Pad", "model/tf.nn.convolution_30/convolution/filter", "model/tf.math.add_50/Add/y"], "device": "/device:CPU:0", "attr": {"num_host_args": {"i": "0"}, "data_format": {"s": "TkhXQw=="}, "filter_format": {"s": "SFdJTw=="}, "_input_shapes": {"list": {"shape": [{"dim": [{"size": "-17"}, {"size": "-46"}, {"size": "-47"}, {"size": "384"}]}, {"dim": [{"size": "3"}, {"size": "3"}, {"size": "384"}, {"size": "768"}]}]}}, "strides": {"list": {"i": ["1", "2", "2", "1"]}}, "num_args": {"i": "1"}, "fused_ops": {"list": {"s": ["Qmlhc0FkZA=="]}}, "TArgs": {"list": {"type": ["DT_FLOAT"]}}, "padding": {"s": "VkFMSUQ="}, "use_cudnn_on_gpu": {"b": true}, "leakyrelu_alpha": {"f": 0.2}, "epsilon": {"f": 0.0}, "T": {"type": "DT_FLOAT"}, "explicit_paddings": {"list": {}}, "dilations": {"list": {"i": ["1", "1", "1", "1"]}}}}, {"name": "model/tf.math.sigmoid_30/Sigmoid", "op": "Sigmoid", "input": ["model/tf.math.add_50/Add"], "attr": {"_input_shapes": {"list": {"shape": [{"dim": [{"size": "-17"}, {"size": "-48"}, {"size": "-49"}, {"size": "768"}]}]}}, "T": {"type": "DT_FLOAT"}}}, {"name": "model/tf.math.multiply_143/Mul", "op": "Mul", "input": ["model/tf.math.add_50/Add", "model/tf.math.sigmoid_30/Sigmoid"], "attr": {"T": {"type": "DT_FLOAT"}}}, {"name": "model/tf.math.add_51/Add", "op": "_FusedConv2D", "input": ["model/tf.math.multiply_143/Mul", "model/tf.nn.convolution_31/convolution/filter", "model/tf.math.add_51/Add/y"], "device": "/device:CPU:0", "attr": {"num_host_args": {"i": "0"}, "_input_shapes": {"list": {"shape": [{"dim": [{"size": "-17"}, {"size": "-48"}, {"size": "-49"}, {"size": "768"}]}, {"dim": [{"size": "1"}, {"size": "1"}, {"size": "768"}, {"size": "768"}]}]}}, "filter_format": {"s": "SFdJTw=="}, "data_format": {"s": "TkhXQw=="}, "fused_ops": {"list": {"s": ["Qmlhc0FkZA=="]}}, "num_args": {"i": "1"}, "strides": {"list": {"i": ["1", "1", "1", "1"]}}, "TArgs": {"list": {"type": ["DT_FLOAT"]}}, "padding": {"s": "U0FNRQ=="}, "use_cudnn_on_gpu": {"b": true}, "leakyrelu_alpha": {"f": 0.2}, "epsilon": {"f": 0.0}, "T": {"type": "DT_FLOAT"}, "explicit_paddings": {"list": {}}, "dilations": {"list": {"i": ["1", "1", "1", "1"]}}}}, {"name": "model/tf.math.sigmoid_31/Sigmoid", "op": "Sigmoid", "input": ["model/tf.math.add_51/Add"], "attr": {"_input_shapes": {"list": {"shape": [{"dim": [{"size": "-17"}, {"size": "-48"}, {"size": "-49"}, {"size": "768"}]}]}}, "T": {"type": "DT_FLOAT"}}}, {"name": "model/tf.math.multiply_147/Mul", "op": "Mul", "input": ["model/tf.math.add_51/Add", "model/tf.math.sigmoid_31/Sigmoid"], "attr": {"T": {"type": "DT_FLOAT"}}}, {"name": "model/tf.strided_slice_6/StridedSlice", "op": "StridedSlice", "input": ["model/tf.math.multiply_147/Mul", "model/tf.strided_slice_6/ones_like/tensor", "model/tf.strided_slice_6/StridedSlice/end", "model/tf.strided_slice_6/ones_like"], "attr": {"shrink_axis_mask": {"i": "0"}, "new_axis_mask": {"i": "0"}, "Index": {"type": "DT_INT64"}, "begin_mask": {"i": "15"}, "T": {"type": "DT_FLOAT"}, "end_mask": {"i": "7"}, "ellipsis_mask": {"i": "0"}}}, {"name": "model/tf.strided_slice_7/StridedSlice", "op": "StridedSlice", "input": ["model/tf.math.multiply_147/Mul", "model/tf.strided_slice_7/ones_like/tensor", "model/tf.strided_slice_7/StridedSlice/end", "model/tf.strided_slice_7/ones_like"], "attr": {"shrink_axis_mask": {"i": "0"}, "Index": {"type": "DT_INT64"}, "new_axis_mask": {"i": "0"}, "begin_mask": {"i": "7"}, "end_mask": {"i": "7"}, "T": {"type": "DT_FLOAT"}, "ellipsis_mask": {"i": "0"}}}, {"name": "model/tf.math.add_52/Add", "op": "_FusedConv2D", "input": ["model/tf.strided_slice_7/StridedSlice", "model/tf.nn.convolution_32/convolution/filter", "model/tf.math.add_52/Add/y"], "device": "/device:CPU:0", "attr": {"num_host_args": {"i": "0"}, "_input_shapes": {"list": {"shape": [{"dim": [{"size": "1"}, {"size": "-24"}, {"size": "-25"}, {"size": "384"}]}, {"dim": [{"size": "3"}, {"size": "3"}, {"size": "384"}, {"size": "384"}]}]}}, "filter_format": {"s": "SFdJTw=="}, "data_format": {"s": "TkhXQw=="}, "strides": {"list": {"i": ["1", "1", "1", "1"]}}, "num_args": {"i": "1"}, "fused_ops": {"list": {"s": ["Qmlhc0FkZA=="]}}, "TArgs": {"list": {"type": ["DT_FLOAT"]}}, "padding": {"s": "U0FNRQ=="}, "use_cudnn_on_gpu": {"b": true}, "leakyrelu_alpha": {"f": 0.2}, "epsilon": {"f": 0.0}, "T": {"type": "DT_FLOAT"}, "explicit_paddings": {"list": {}}, "dilations": {"list": {"i": ["1", "1", "1", "1"]}}}}, {"name": "model/tf.math.sigmoid_32/Sigmoid", "op": "Sigmoid", "input": ["model/tf.math.add_52/Add"], "attr": {"_input_shapes": {"list": {"shape": [{"dim": [{"size": "1"}, {"size": "-24"}, {"size": "-25"}, {"size": "384"}]}]}}, "T": {"type": "DT_FLOAT"}}}, {"name": "model/tf.math.multiply_151/Mul", "op": "Mul", "input": ["model/tf.math.add_52/Add", "model/tf.math.sigmoid_32/Sigmoid"], "attr": {"T": {"type": "DT_FLOAT"}}}, {"name": "model/tf.math.add_53/Add", "op": "_FusedConv2D", "input": ["model/tf.math.multiply_151/Mul", "model/tf.nn.convolution_33/convolution/filter", "model/tf.math.add_53/Add/y"], "device": "/device:CPU:0", "attr": {"num_host_args": {"i": "0"}, "data_format": {"s": "TkhXQw=="}, "filter_format": {"s": "SFdJTw=="}, "_input_shapes": {"list": {"shape": [{"dim": [{"size": "1"}, {"size": "-24"}, {"size": "-25"}, {"size": "384"}]}, {"dim": [{"size": "3"}, {"size": "3"}, {"size": "384"}, {"size": "384"}]}]}}, "strides": {"list": {"i": ["1", "1", "1", "1"]}}, "num_args": {"i": "1"}, "fused_ops": {"list": {"s": ["Qmlhc0FkZA=="]}}, "TArgs": {"list": {"type": ["DT_FLOAT"]}}, "padding": {"s": "U0FNRQ=="}, "use_cudnn_on_gpu": {"b": true}, "leakyrelu_alpha": {"f": 0.2}, "epsilon": {"f": 0.0}, "T": {"type": "DT_FLOAT"}, "explicit_paddings": {"list": {}}, "dilations": {"list": {"i": ["1", "1", "1", "1"]}}}}, {"name": "model/tf.math.sigmoid_33/Sigmoid", "op": "Sigmoid", "input": ["model/tf.math.add_53/Add"], "attr": {"_input_shapes": {"list": {"shape": [{"dim": [{"size": "1"}, {"size": "-24"}, {"size": "-25"}, {"size": "384"}]}]}}, "T": {"type": "DT_FLOAT"}}}, {"name": "model/tf.math.multiply_155/Mul", "op": "Mul", "input": ["model/tf.math.add_53/Add", "model/tf.math.sigmoid_33/Sigmoid"], "attr": {"T": {"type": "DT_FLOAT"}}}, {"name": "model/tf.math.add_55/Add", "op": "AddV2", "input": ["model/tf.strided_slice_7/StridedSlice", "model/tf.math.multiply_155/Mul"], "attr": {"T": {"type": "DT_FLOAT"}}}, {"name": "model/tf.math.add_56/Add", "op": "_FusedConv2D", "input": ["model/tf.math.add_55/Add", "model/tf.nn.convolution_34/convolution/filter", "model/tf.math.add_56/Add/y"], "device": "/device:CPU:0", "attr": {"num_host_args": {"i": "0"}, "data_format": {"s": "TkhXQw=="}, "filter_format": {"s": "SFdJTw=="}, "_input_shapes": {"list": {"shape": [{"dim": [{"size": "1"}, {"size": "-24"}, {"size": "-25"}, {"size": "384"}]}, {"dim": [{"size": "3"}, {"size": "3"}, {"size": "384"}, {"size": "384"}]}]}}, "fused_ops": {"list": {"s": ["Qmlhc0FkZA=="]}}, "num_args": {"i": "1"}, "strides": {"list": {"i": ["1", "1", "1", "1"]}}, "TArgs": {"list": {"type": ["DT_FLOAT"]}}, "padding": {"s": "U0FNRQ=="}, "use_cudnn_on_gpu": {"b": true}, "leakyrelu_alpha": {"f": 0.2}, "epsilon": {"f": 0.0}, "T": {"type": "DT_FLOAT"}, "explicit_paddings": {"list": {}}, "dilations": {"list": {"i": ["1", "1", "1", "1"]}}}}, {"name": "model/tf.math.sigmoid_34/Sigmoid", "op": "Sigmoid", "input": ["model/tf.math.add_56/Add"], "attr": {"_input_shapes": {"list": {"shape": [{"dim": [{"size": "1"}, {"size": "-24"}, {"size": "-25"}, {"size": "384"}]}]}}, "T": {"type": "DT_FLOAT"}}}, {"name": "model/tf.math.multiply_161/Mul", "op": "Mul", "input": ["model/tf.math.add_56/Add", "model/tf.math.sigmoid_34/Sigmoid"], "attr": {"T": {"type": "DT_FLOAT"}}}, {"name": "model/tf.math.add_57/Add", "op": "_FusedConv2D", "input": ["model/tf.math.multiply_161/Mul", "model/tf.nn.convolution_35/convolution/filter", "model/tf.math.add_57/Add/y"], "device": "/device:CPU:0", "attr": {"num_host_args": {"i": "0"}, "data_format": {"s": "TkhXQw=="}, "filter_format": {"s": "SFdJTw=="}, "_input_shapes": {"list": {"shape": [{"dim": [{"size": "1"}, {"size": "-24"}, {"size": "-25"}, {"size": "384"}]}, {"dim": [{"size": "3"}, {"size": "3"}, {"size": "384"}, {"size": "384"}]}]}}, "fused_ops": {"list": {"s": ["Qmlhc0FkZA=="]}}, "num_args": {"i": "1"}, "strides": {"list": {"i": ["1", "1", "1", "1"]}}, "TArgs": {"list": {"type": ["DT_FLOAT"]}}, "padding": {"s": "U0FNRQ=="}, "use_cudnn_on_gpu": {"b": true}, "leakyrelu_alpha": {"f": 0.2}, "epsilon": {"f": 0.0}, "T": {"type": "DT_FLOAT"}, "explicit_paddings": {"list": {}}, "dilations": {"list": {"i": ["1", "1", "1", "1"]}}}}, {"name": "model/tf.math.sigmoid_35/Sigmoid", "op": "Sigmoid", "input": ["model/tf.math.add_57/Add"], "attr": {"_input_shapes": {"list": {"shape": [{"dim": [{"size": "1"}, {"size": "-24"}, {"size": "-25"}, {"size": "384"}]}]}}, "T": {"type": "DT_FLOAT"}}}, {"name": "model/tf.math.multiply_165/Mul", "op": "Mul", "input": ["model/tf.math.add_57/Add", "model/tf.math.sigmoid_35/Sigmoid"], "attr": {"T": {"type": "DT_FLOAT"}}}, {"name": "model/tf.math.add_59/Add", "op": "AddV2", "input": ["model/tf.math.add_55/Add", "model/tf.math.multiply_165/Mul"], "attr": {"T": {"type": "DT_FLOAT"}}}, {"name": "model/tf.concat_3/concat", "op": "ConcatV2", "input": ["model/tf.strided_slice_6/StridedSlice", "model/tf.strided_slice_7/StridedSlice", "model/tf.math.add_55/Add", "model/tf.math.add_59/Add", "model/tf.concat_3/concat/axis"], "attr": {"N": {"i": "4"}, "Tidx": {"type": "DT_INT32"}, "T": {"type": "DT_FLOAT"}}}, {"name": "model/tf.math.add_60/Add", "op": "_FusedConv2D", "input": ["model/tf.concat_3/concat", "model/tf.nn.convolution_36/convolution/filter", "model/tf.math.add_60/Add/y"], "device": "/device:CPU:0", "attr": {"num_host_args": {"i": "0"}, "_input_shapes": {"list": {"shape": [{"dim": [{"size": "1"}, {"size": "-24"}, {"size": "-25"}, {"size": "1536"}]}, {"dim": [{"size": "1"}, {"size": "1"}, {"size": "1536"}, {"size": "768"}]}]}}, "filter_format": {"s": "SFdJTw=="}, "data_format": {"s": "TkhXQw=="}, "fused_ops": {"list": {"s": ["Qmlhc0FkZA=="]}}, "num_args": {"i": "1"}, "strides": {"list": {"i": ["1", "1", "1", "1"]}}, "TArgs": {"list": {"type": ["DT_FLOAT"]}}, "padding": {"s": "U0FNRQ=="}, "use_cudnn_on_gpu": {"b": true}, "leakyrelu_alpha": {"f": 0.2}, "epsilon": {"f": 0.0}, "T": {"type": "DT_FLOAT"}, "explicit_paddings": {"list": {}}, "dilations": {"list": {"i": ["1", "1", "1", "1"]}}}}, {"name": "model/tf.math.sigmoid_36/Sigmoid", "op": "Sigmoid", "input": ["model/tf.math.add_60/Add"], "attr": {"_input_shapes": {"list": {"shape": [{"dim": [{"size": "1"}, {"size": "-24"}, {"size": "-25"}, {"size": "768"}]}]}}, "T": {"type": "DT_FLOAT"}}}, {"name": "model/tf.math.multiply_171/Mul", "op": "Mul", "input": ["model/tf.math.add_60/Add", "model/tf.math.sigmoid_36/Sigmoid"], "attr": {"T": {"type": "DT_FLOAT"}}}, {"name": "model/tf.math.add_61/Add", "op": "_FusedConv2D", "input": ["model/tf.math.multiply_171/Mul", "model/tf.nn.convolution_37/convolution/filter", "model/tf.math.add_61/Add/y"], "device": "/device:CPU:0", "attr": {"num_host_args": {"i": "0"}, "_input_shapes": {"list": {"shape": [{"dim": [{"size": "1"}, {"size": "-24"}, {"size": "-25"}, {"size": "768"}]}, {"dim": [{"size": "1"}, {"size": "1"}, {"size": "768"}, {"size": "1280"}]}]}}, "filter_format": {"s": "SFdJTw=="}, "data_format": {"s": "TkhXQw=="}, "strides": {"list": {"i": ["1", "1", "1", "1"]}}, "num_args": {"i": "1"}, "fused_ops": {"list": {"s": ["Qmlhc0FkZA=="]}}, "TArgs": {"list": {"type": ["DT_FLOAT"]}}, "padding": {"s": "U0FNRQ=="}, "use_cudnn_on_gpu": {"b": true}, "leakyrelu_alpha": {"f": 0.2}, "epsilon": {"f": 0.0}, "T": {"type": "DT_FLOAT"}, "explicit_paddings": {"list": {}}, "dilations": {"list": {"i": ["1", "1", "1", "1"]}}}}, {"name": "model/tf.math.sigmoid_37/Sigmoid", "op": "Sigmoid", "input": ["model/tf.math.add_61/Add"], "attr": {"_input_shapes": {"list": {"shape": [{"dim": [{"size": "1"}, {"size": "-24"}, {"size": "-25"}, {"size": "1280"}]}]}}, "T": {"type": "DT_FLOAT"}}}, {"name": "model/tf.math.multiply_175/Mul", "op": "Mul", "input": ["model/tf.math.add_61/Add", "model/tf.math.sigmoid_37/Sigmoid"], "attr": {"T": {"type": "DT_FLOAT"}}}, {"name": "model/tf.math.reduce_mean/Mean", "op": "Mean", "input": ["model/tf.math.multiply_175/Mul", "model/tf.math.reduce_mean/Mean/reduction_indices"], "attr": {"T": {"type": "DT_FLOAT"}, "Tidx": {"type": "DT_INT32"}, "keep_dims": {"b": true}}}, {"name": "model/tf.compat.v1.transpose_50/transpose", "op": "Transpose", "input": ["model/tf.math.reduce_mean/Mean", "model/tf.compat.v1.transpose_50/transpose/perm"], "attr": {"Tperm": {"type": "DT_INT32"}, "_input_shapes": {"list": {"shape": [{"dim": [{"size": "1"}, {"size": "1"}, {"size": "1"}, {"size": "1280"}]}, {"dim": [{"size": "4"}]}]}}, "T": {"type": "DT_FLOAT"}}}, {"name": "model/tf.reshape/Reshape", "op": "Reshape", "input": ["model/tf.compat.v1.transpose_50/transpose", "model/tf.reshape/Reshape/shape"], "attr": {"T": {"type": "DT_FLOAT"}, "Tshape": {"type": "DT_INT32"}}}, {"name": "model/tf.__operators__.add/AddV2", "op": "_FusedMatMul", "input": ["model/tf.reshape/Reshape", "model/tf.linalg.matmul/MatMul/b", "model/tf.__operators__.add/AddV2/y"], "device": "/device:CPU:0", "attr": {"transpose_a": {"b": false}, "_input_shapes": {"list": {"shape": [{"dim": [{"size": "1"}, {"size": "1280"}]}, {"dim": [{"size": "1280"}, {"size": "10"}]}]}}, "transpose_b": {"b": false}, "fused_ops": {"list": {"s": ["Qmlhc0FkZA=="]}}, "num_args": {"i": "1"}, "leakyrelu_alpha": {"f": 0.2}, "epsilon": {"f": 0.0}, "T": {"type": "DT_FLOAT"}}}, {"name": "model/output0/wa/model.9/Softmax", "op": "Softmax", "input": ["model/tf.__operators__.add/AddV2"], "attr": {"T": {"type": "DT_FLOAT"}}}, {"name": "Identity", "op": "Identity", "input": ["model/output0/wa/model.9/Softmax"], "attr": {"T": {"type": "DT_FLOAT"}}}], "library": {}, "versions": {"producer": 2129}}, "weightsManifest": [{"paths": ["group1-shard1of16.bin", "group1-shard2of16.bin", "group1-shard3of16.bin", "group1-shard4of16.bin", "group1-shard5of16.bin", "group1-shard6of16.bin", "group1-shard7of16.bin", "group1-shard8of16.bin", "group1-shard9of16.bin", "group1-shard10of16.bin", "group1-shard11of16.bin", "group1-shard12of16.bin", "group1-shard13of16.bin", "group1-shard14of16.bin", "group1-shard15of16.bin", "group1-shard16of16.bin"], "weights": [{"name": "model/tf.strided_slice_6/ones_like/tensor", "shape": [4], "dtype": "int32"}, {"name": "model/tf.strided_slice_6/StridedSlice/end", "shape": [4], "dtype": "int32"}, {"name": "model/tf.strided_slice_6/ones_like", "shape": [4], "dtype": "int32"}, {"name": "model/tf.strided_slice_4/ones_like/tensor", "shape": [4], "dtype": "int32"}, {"name": "model/tf.strided_slice_4/StridedSlice/end", "shape": [4], "dtype": "int32"}, {"name": "model/tf.strided_slice_4/ones_like", "shape": [4], "dtype": "int32"}, {"name": "model/tf.strided_slice_2/ones_like/tensor", "shape": [4], "dtype": "int32"}, {"name": "model/tf.strided_slice_2/StridedSlice/end", "shape": [4], "dtype": "int32"}, {"name": "model/tf.strided_slice_2/ones_like", "shape": [4], "dtype": "int32"}, {"name": "model/tf.strided_slice/ones_like/tensor", "shape": [4], "dtype": "int32"}, {"name": "model/tf.strided_slice/StridedSlice/end", "shape": [4], "dtype": "int32"}, {"name": "model/tf.strided_slice/ones_like", "shape": [4], "dtype": "int32"}, {"name": "model/tf.compat.v1.pad/Pad/paddings", "shape": [4, 2], "dtype": "int32"}, {"name": "model/tf.nn.convolution/convolution/filter", "shape": [3, 3, 3, 48], "dtype": "float32"}, {"name": "model/tf.math.add/Add/y", "shape": [48], "dtype": "float32"}, {"name": "model/tf.compat.v1.pad_1/Pad/paddings", "shape": [4, 2], "dtype": "int32"}, {"name": "model/tf.nn.convolution_1/convolution/filter", "shape": [3, 3, 48, 96], "dtype": "float32"}, {"name": "model/tf.math.add_1/Add/y", "shape": [96], "dtype": "float32"}, {"name": "model/tf.nn.convolution_2/convolution/filter", "shape": [1, 1, 96, 96], "dtype": "float32"}, {"name": "model/tf.math.add_2/Add/y", "shape": [96], "dtype": "float32"}, {"name": "model/tf.strided_slice_1/ones_like/tensor", "shape": [4], "dtype": "int32"}, {"name": "model/tf.strided_slice_1/StridedSlice/end", "shape": [4], "dtype": "int32"}, {"name": "model/tf.strided_slice_1/ones_like", "shape": [4], "dtype": "int32"}, {"name": "model/tf.nn.convolution_3/convolution/filter", "shape": [3, 3, 48, 48], "dtype": "float32"}, {"name": "model/tf.math.add_3/Add/y", "shape": [48], "dtype": "float32"}, {"name": "model/tf.nn.convolution_4/convolution/filter", "shape": [3, 3, 48, 48], "dtype": "float32"}, {"name": "model/tf.math.add_4/Add/y", "shape": [48], "dtype": "float32"}, {"name": "model/tf.nn.convolution_5/convolution/filter", "shape": [3, 3, 48, 48], "dtype": "float32"}, {"name": "model/tf.math.add_7/Add/y", "shape": [48], "dtype": "float32"}, {"name": "model/tf.nn.convolution_6/convolution/filter", "shape": [3, 3, 48, 48], "dtype": "float32"}, {"name": "model/tf.math.add_8/Add/y", "shape": [48], "dtype": "float32"}, {"name": "model/tf.concat/concat/axis", "shape": [], "dtype": "int32"}, {"name": "model/tf.nn.convolution_7/convolution/filter", "shape": [1, 1, 192, 96], "dtype": "float32"}, {"name": "model/tf.math.add_11/Add/y", "shape": [96], "dtype": "float32"}, {"name": "model/tf.compat.v1.pad_2/Pad/paddings", "shape": [4, 2], "dtype": "int32"}, {"name": "model/tf.nn.convolution_8/convolution/filter", "shape": [3, 3, 96, 192], "dtype": "float32"}, {"name": "model/tf.math.add_12/Add/y", "shape": [192], "dtype": "float32"}, {"name": "model/tf.nn.convolution_9/convolution/filter", "shape": [1, 1, 192, 192], "dtype": "float32"}, {"name": "model/tf.math.add_13/Add/y", "shape": [192], "dtype": "float32"}, {"name": "model/tf.strided_slice_3/ones_like/tensor", "shape": [4], "dtype": "int32"}, {"name": "model/tf.strided_slice_3/StridedSlice/end", "shape": [4], "dtype": "int32"}, {"name": "model/tf.strided_slice_3/ones_like", "shape": [4], "dtype": "int32"}, {"name": "model/tf.nn.convolution_10/convolution/filter", "shape": [3, 3, 96, 96], "dtype": "float32"}, {"name": "model/tf.math.add_14/Add/y", "shape": [96], "dtype": "float32"}, {"name": "model/tf.nn.convolution_11/convolution/filter", "shape": [3, 3, 96, 96], "dtype": "float32"}, {"name": "model/tf.math.add_15/Add/y", "shape": [96], "dtype": "float32"}, {"name": "model/tf.nn.convolution_12/convolution/filter", "shape": [3, 3, 96, 96], "dtype": "float32"}, {"name": "model/tf.math.add_18/Add/y", "shape": [96], "dtype": "float32"}, {"name": "model/tf.nn.convolution_13/convolution/filter", "shape": [3, 3, 96, 96], "dtype": "float32"}, {"name": "model/tf.math.add_19/Add/y", "shape": [96], "dtype": "float32"}, {"name": "model/tf.nn.convolution_14/convolution/filter", "shape": [3, 3, 96, 96], "dtype": "float32"}, {"name": "model/tf.math.add_22/Add/y", "shape": [96], "dtype": "float32"}, {"name": "model/tf.nn.convolution_15/convolution/filter", "shape": [3, 3, 96, 96], "dtype": "float32"}, {"name": "model/tf.math.add_23/Add/y", "shape": [96], "dtype": "float32"}, {"name": "model/tf.nn.convolution_16/convolution/filter", "shape": [3, 3, 96, 96], "dtype": "float32"}, {"name": "model/tf.math.add_26/Add/y", "shape": [96], "dtype": "float32"}, {"name": "model/tf.nn.convolution_17/convolution/filter", "shape": [3, 3, 96, 96], "dtype": "float32"}, {"name": "model/tf.math.add_27/Add/y", "shape": [96], "dtype": "float32"}, {"name": "model/tf.concat_1/concat/axis", "shape": [], "dtype": "int32"}, {"name": "model/tf.nn.convolution_18/convolution/filter", "shape": [1, 1, 576, 192], "dtype": "float32"}, {"name": "model/tf.math.add_30/Add/y", "shape": [192], "dtype": "float32"}, {"name": "model/tf.compat.v1.pad_3/Pad/paddings", "shape": [4, 2], "dtype": "int32"}, {"name": "model/tf.nn.convolution_19/convolution/filter", "shape": [3, 3, 192, 384], "dtype": "float32"}, {"name": "model/tf.math.add_31/Add/y", "shape": [384], "dtype": "float32"}, {"name": "model/tf.nn.convolution_20/convolution/filter", "shape": [1, 1, 384, 384], "dtype": "float32"}, {"name": "model/tf.math.add_32/Add/y", "shape": [384], "dtype": "float32"}, {"name": "model/tf.strided_slice_5/ones_like/tensor", "shape": [4], "dtype": "int32"}, {"name": "model/tf.strided_slice_5/StridedSlice/end", "shape": [4], "dtype": "int32"}, {"name": "model/tf.strided_slice_5/ones_like", "shape": [4], "dtype": "int32"}, {"name": "model/tf.nn.convolution_21/convolution/filter", "shape": [3, 3, 192, 192], "dtype": "float32"}, {"name": "model/tf.math.add_33/Add/y", "shape": [192], "dtype": "float32"}, {"name": "model/tf.nn.convolution_22/convolution/filter", "shape": [3, 3, 192, 192], "dtype": "float32"}, {"name": "model/tf.math.add_34/Add/y", "shape": [192], "dtype": "float32"}, {"name": "model/tf.nn.convolution_23/convolution/filter", "shape": [3, 3, 192, 192], "dtype": "float32"}, {"name": "model/tf.math.add_37/Add/y", "shape": [192], "dtype": "float32"}, {"name": "model/tf.nn.convolution_24/convolution/filter", "shape": [3, 3, 192, 192], "dtype": "float32"}, {"name": "model/tf.math.add_38/Add/y", "shape": [192], "dtype": "float32"}, {"name": "model/tf.nn.convolution_25/convolution/filter", "shape": [3, 3, 192, 192], "dtype": "float32"}, {"name": "model/tf.math.add_41/Add/y", "shape": [192], "dtype": "float32"}, {"name": "model/tf.nn.convolution_26/convolution/filter", "shape": [3, 3, 192, 192], "dtype": "float32"}, {"name": "model/tf.math.add_42/Add/y", "shape": [192], "dtype": "float32"}, {"name": "model/tf.nn.convolution_27/convolution/filter", "shape": [3, 3, 192, 192], "dtype": "float32"}, {"name": "model/tf.math.add_45/Add/y", "shape": [192], "dtype": "float32"}, {"name": "model/tf.nn.convolution_28/convolution/filter", "shape": [3, 3, 192, 192], "dtype": "float32"}, {"name": "model/tf.math.add_46/Add/y", "shape": [192], "dtype": "float32"}, {"name": "model/tf.concat_2/concat/axis", "shape": [], "dtype": "int32"}, {"name": "model/tf.nn.convolution_29/convolution/filter", "shape": [1, 1, 1152, 384], "dtype": "float32"}, {"name": "model/tf.math.add_49/Add/y", "shape": [384], "dtype": "float32"}, {"name": "model/tf.compat.v1.pad_4/Pad/paddings", "shape": [4, 2], "dtype": "int32"}, {"name": "model/tf.nn.convolution_30/convolution/filter", "shape": [3, 3, 384, 768], "dtype": "float32"}, {"name": "model/tf.math.add_50/Add/y", "shape": [768], "dtype": "float32"}, {"name": "model/tf.nn.convolution_31/convolution/filter", "shape": [1, 1, 768, 768], "dtype": "float32"}, {"name": "model/tf.math.add_51/Add/y", "shape": [768], "dtype": "float32"}, {"name": "model/tf.strided_slice_7/ones_like/tensor", "shape": [4], "dtype": "int32"}, {"name": "model/tf.strided_slice_7/StridedSlice/end", "shape": [4], "dtype": "int32"}, {"name": "model/tf.strided_slice_7/ones_like", "shape": [4], "dtype": "int32"}, {"name": "model/tf.nn.convolution_32/convolution/filter", "shape": [3, 3, 384, 384], "dtype": "float32"}, {"name": "model/tf.math.add_52/Add/y", "shape": [384], "dtype": "float32"}, {"name": "model/tf.nn.convolution_33/convolution/filter", "shape": [3, 3, 384, 384], "dtype": "float32"}, {"name": "model/tf.math.add_53/Add/y", "shape": [384], "dtype": "float32"}, {"name": "model/tf.nn.convolution_34/convolution/filter", "shape": [3, 3, 384, 384], "dtype": "float32"}, {"name": "model/tf.math.add_56/Add/y", "shape": [384], "dtype": "float32"}, {"name": "model/tf.nn.convolution_35/convolution/filter", "shape": [3, 3, 384, 384], "dtype": "float32"}, {"name": "model/tf.math.add_57/Add/y", "shape": [384], "dtype": "float32"}, {"name": "model/tf.concat_3/concat/axis", "shape": [], "dtype": "int32"}, {"name": "model/tf.nn.convolution_36/convolution/filter", "shape": [1, 1, 1536, 768], "dtype": "float32"}, {"name": "model/tf.math.add_60/Add/y", "shape": [768], "dtype": "float32"}, {"name": "model/tf.nn.convolution_37/convolution/filter", "shape": [1, 1, 768, 1280], "dtype": "float32"}, {"name": "model/tf.math.add_61/Add/y", "shape": [1280], "dtype": "float32"}, {"name": "model/tf.math.reduce_mean/Mean/reduction_indices", "shape": [2], "dtype": "int32"}, {"name": "model/tf.compat.v1.transpose_50/transpose/perm", "shape": [4], "dtype": "int32"}, {"name": "model/tf.reshape/Reshape/shape", "shape": [2], "dtype": "int32"}, {"name": "model/tf.linalg.matmul/MatMul/b", "shape": [1280, 10], "dtype": "float32"}, {"name": "model/tf.__operators__.add/AddV2/y", "shape": [10], "dtype": "float32"}]}]}